models/v2/casita.tflite (tflite, 60944 bytes, 18 tensors)

tfl.pseudo_qconst1 i1 [1, 1088] scale=0.0019764013 zero_point=0
000000 c9 ee cd b8 d8 1f ef 00 00 f8 c0 f2 d3 df fe ea
       -0.10870207 -0.035575222 -0.10079647 -0.14230089 -0.079056054 0.06126844 -0.03359882 0.0 0.0 -0.01581121 -0.12648968 -0.027669618 -0.08893806 -0.06522124 -0.0039528026 -0.04348083
000010 ea 08 e4 d5 ec 04 bd ca 01 0b af c6 cf 0b 2c be
       -0.04348083 0.01581121 -0.055339236 -0.084985256 -0.039528027 0.007905605 -0.13241889 -0.10672567 0.0019764013 0.021740414 -0.16008851 -0.11463127 -0.09684367 0.021740414 0.08696166 -0.13044249
000020 ef d8 e0 eb e7 08 ea 0b d4 05 35 be 34 01 fa cd
       -0.03359882 -0.079056054 -0.06324484 -0.041504428 -0.049410034 0.01581121 -0.04348083 0.021740414 -0.08696166 0.009882007 0.10474927 -0.13044249 0.10277287 0.0019764013 -0.011858407 -0.10079647
000030 01 d5 eb d0 01 ca db e3 fd b8 df e1 ff 26 89 d2
       0.0019764013 -0.084985256 -0.041504428 -0.09486726 0.0019764013 -0.10672567 -0.073126845 -0.057315636 -0.0059292037 -0.14230089 -0.06522124 -0.06126844 -0.0019764013 0.07510325 -0.23519176 -0.09091446
000040 e7 f2 06 e4 e7 e1 17 ca f7 09 dd 13 13 df 00 de
       -0.049410034 -0.027669618 0.011858407 -0.055339236 -0.049410034 -0.06126844 0.04545723 -0.10672567 -0.017787611 0.017787611 -0.069174044 0.037551627 0.037551627 -0.06522124 0.0 -0.06719764
000050 0e dd 12 16 ec 0c b3 fb f8 d8 c4 e9 d8 10 0c e5
       0.027669618 -0.069174044 0.035575222 0.04348083 -0.039528027 0.023716815 -0.1521829 -0.009882007 -0.01581121 -0.079056054 -0.11858408 -0.04545723 -0.079056054 0.03162242 0.023716815 -0.053362835
000060 cf f5 06 0f e5 2c f0 fc 0d 32 e7 c5 ea ee d8 e7
       -0.09684367 -0.021740414 0.011858407 0.02964602 -0.053362835 0.08696166 -0.03162242 -0.007905605 0.025693217 0.09882007 -0.049410034 -0.11660768 -0.04348083 -0.035575222 -0.079056054 -0.049410034
000070 20 c6 e0 f8 0a e0 f1 0e e4 cd bf f0 00 ed a7 f5
       0.06324484 -0.11463127 -0.06324484 -0.01581121 0.019764014 -0.06324484 -0.02964602 0.027669618 -0.055339236 -0.10079647 -0.12846608 -0.03162242 0.0 -0.037551627 -0.17589971 -0.021740414
000080 c0 c7 e2 e4 16 f1 dd 05 da 0b 0d d6 fb ed 10 01
       -0.12648968 -0.11265487 -0.05929204 -0.055339236 0.04348083 -0.02964602 -0.069174044 0.009882007 -0.07510325 0.021740414 0.025693217 -0.083008856 -0.009882007 -0.037551627 0.03162242 0.0019764013
000090 14 ca 05 0b 26 d5 10 1e f7 cd c2 f1 ef 00 f8 e3
       0.039528027 -0.10672567 0.009882007 0.021740414 0.07510325 -0.084985256 0.03162242 0.05929204 -0.017787611 -0.10079647 -0.12253688 -0.02964602 -0.03359882 0.0 -0.01581121 -0.057315636
0000a0 d8 ac d7 e2 05 1d f1 f7 ce 13 f1 f7 1a 15 b9 d5
       -0.079056054 -0.16601771 -0.081032455 -0.05929204 0.009882007 0.057315636 -0.02964602 -0.017787611 -0.09882007 0.037551627 -0.02964602 -0.017787611 0.051386435 0.041504428 -0.14032449 -0.084985256
0000b0 25 ca ec d2 00 16 03 0b d3 f6 c3 f3 01 04 e2 e6
       0.073126845 -0.10672567 -0.039528027 -0.09091446 0.0 0.04348083 0.0059292037 0.021740414 -0.08893806 -0.019764014 -0.12056048 -0.025693217 0.0019764013 0.007905605 -0.05929204 -0.051386435
0000c0 cd fc 0a e9 dc e9 0a fe f3 0f ed b3 01 d6 e4 c8
       -0.10079647 -0.007905605 0.019764014 -0.04545723 -0.071150444 -0.04545723 0.019764014 -0.0039528026 -0.025693217 0.02964602 -0.037551627 -0.1521829 0.0019764013 -0.083008856 -0.055339236 -0.11067847
0000d0 07 cd 0a 12 ed d5 d7 09 1b ed fd 14 e4 f0 f5 dd
       0.013834809 -0.10079647 0.019764014 0.035575222 -0.037551627 -0.084985256 -0.081032455 0.017787611 0.053362835 -0.037551627 -0.0059292037 0.039528027 -0.055339236 -0.03162242 -0.021740414 -0.069174044
0000e0 f4 c8 01 05 ff 0a 1f e8 b1 f2 03 fb 22 27 9c f9
       -0.023716815 -0.11067847 0.0019764013 0.009882007 -0.0019764013 0.019764014 0.06126844 -0.04743363 -0.15613571 -0.027669618 0.0059292037 -0.009882007 0.06719764 0.077079654 -0.19764014 -0.013834809
0000f0 eb bf dc df e8 eb 00 11 e2 e4 b8 d7 de de cd fe
       -0.041504428 -0.12846608 -0.071150444 -0.06522124 -0.04743363 -0.041504428 0.0 0.03359882 -0.05929204 -0.055339236 -0.14230089 -0.081032455 -0.06719764 -0.06719764 -0.10079647 -0.0039528026

tfl.pseudo_qconst3 i1 [64, 1, 1, 64]
000000 d2 9f 57 0f 60 3b 07 2e 23 7f ae 0f 22 3a d8 1c
       -46 -97 87 15 96 59 7 46 35 127 -82 15 34 58 -40 28
000010 3d f0 df b6 3b ca 23 b0 23 ae 38 c7 d2 9a e3 69
       61 -16 -33 -74 59 -54 35 -80 35 -82 56 -57 -46 -102 -29 105
000020 30 3a a3 c0 c5 20 cd cf cd 12 dd 05 ef cf d4 fe
       48 58 -93 -64 -59 32 -51 -49 -51 18 -35 5 -17 -49 -44 -2
000030 38 eb 49 b9 67 c1 f6 64 18 14 9b e7 5e e5 c8 3f
       56 -21 73 -71 103 -63 -10 100 24 20 -101 -25 94 -27 -56 63
000040 ef e6 d2 38 bc 01 81 37 ba f0 36 49 09 0a f3 fe
       -17 -26 -46 56 -68 1 -127 55 -70 -16 54 73 9 10 -13 -2
000050 24 c1 22 54 33 16 f7 18 fb 14 f5 2a 0e 00 fa ba
       36 -63 34 84 51 22 -9 24 -5 20 -11 42 14 0 -6 -70
000060 36 f3 e0 c7 14 36 ee da 41 b8 1c f2 00 31 23 0c
       54 -13 -32 -57 20 54 -18 -38 65 -72 28 -14 0 49 35 12
000070 d6 db 26 04 d1 39 f9 1b 4d ef 58 04 37 41 b0 12
       -42 -37 38 4 -47 57 -7 27 77 -17 88 4 55 65 -80 18
000080 b3 04 df e7 21 e1 90 81 e7 0f 30 de bb 37 78 5f
       -77 4 -33 -25 33 -31 -112 -127 -25 15 48 -34 -69 55 120 95
000090 c9 fe b9 1d 3d fd 27 ca 12 95 9a 20 f5 b8 4e 2c
       -55 -2 -71 29 61 -3 39 -54 18 -107 -102 32 -11 -72 78 44
0000a0 05 d1 13 c3 0d 72 44 3e 3c 7b 95 f6 cc cc 36 f1
       5 -47 19 -61 13 114 68 62 60 123 -107 -10 -52 -52 54 -15
0000b0 2a c3 cb f0 02 2b 11 39 52 d1 b9 5d a0 13 27 cc
       42 -61 -53 -16 2 43 17 57 82 -47 -71 93 -96 19 39 -52
0000c0 b9 e3 bb b8 2f c4 bc 1c da eb e3 24 3a 07 ca 2d
       -71 -29 -69 -72 47 -60 -68 28 -38 -21 -29 36 58 7 -54 45
0000d0 dc 5f ce a8 12 07 d0 e5 a7 fd f9 04 d7 e2 31 02
       -36 95 -50 -88 18 7 -48 -27 -89 -3 -7 4 -41 -30 49 2
0000e0 35 4e 18 18 cc 0f 40 e5 69 bb 2c d3 b7 b6 fd ff
       53 78 24 24 -52 15 64 -27 105 -69 44 -45 -73 -74 -3 -1
0000f0 1b 31 58 02 33 28 b6 db 9f e9 a5 1f c2 eb 81 84
       27 49 88 2 51 40 -74 -37 -97 -23 -91 31 -62 -21 -127 -124

tfl.pseudo_qconst5 i1 [1, 23, 1, 64]
000000 f6 b6 c0 32 9c f8 ab f8 10 82 81 08 03 ed 94 0e
       -10 -74 -64 50 -100 -8 -85 -8 16 -126 -127 8 3 -19 -108 14
000010 d0 f2 2e c8 28 90 e2 7f 0c e3 d3 f0 41 53 32 7f
       -48 -14 46 -56 40 -112 -30 127 12 -29 -45 -16 65 83 50 127
000020 36 2f 7f c1 4a 5a f5 d2 37 2d 17 f3 db 81 f2 ea
       54 47 127 -63 74 90 -11 -46 55 45 23 -13 -37 -127 -14 -22
000030 1a ea 4a 78 d9 07 05 6a d0 7f 7f fb f1 fd e8 5a
       26 -22 74 120 -39 7 5 106 -48 127 127 -5 -15 -3 -24 90
000040 72 db 92 db b9 3c c8 0c 0f 81 a6 f4 a9 ec 99 20
       114 -37 -110 -37 -71 60 -56 12 15 -127 -90 -12 -87 -20 -103 32
000050 d1 bb db b7 1e f2 c9 71 2c c1 aa 05 29 5a 55 78
       -47 -69 -37 -73 30 -14 -55 113 44 -63 -86 5 41 90 85 120
000060 3b 35 48 1c 3d 5e c0 e2 10 f7 2a 15 0b 99 e2 13
       59 53 72 28 61 94 -64 -30 16 -9 42 21 11 -103 -30 19
000070 43 0e 11 44 81 34 10 7f b7 20 1e c0 42 ce ba 09
       67 14 17 68 -127 52 16 127 -73 32 30 -64 66 -50 -70 9
000080 7f 9f d5 5a 0f 2f a6 1a fc f5 f8 57 cd fa 81 fb
       127 -97 -43 90 15 47 -90 26 -4 -11 -8 87 -51 -6 -127 -5
000090 f1 d4 05 ba f9 34 ca 18 7f d2 1a d9 22 2e 5a 6a
       -15 -44 5 -70 -7 52 -54 24 127 -46 26 -39 34 46 90 106
0000a0 f6 1a 0e 0f b2 0f fe b6 e4 30 2f dd 2e b2 22 b8
       -10 26 14 15 -78 15 -2 -74 -28 48 47 -35 46 -78 34 -72
0000b0 30 b2 e2 1d ee 45 35 6b a7 e3 dd 14 33 d7 bc 22
       48 -78 -30 29 -18 69 53 107 -89 -29 -35 20 51 -41 -68 34
0000c0 e1 bc c7 d0 09 fc c5 0d fb e7 0e 4e f6 c1 b0 e2
       -31 -68 -57 -48 9 -4 -59 13 -5 -25 14 78 -10 -63 -80 -30
0000d0 09 f7 d7 b1 00 39 c8 22 4b 05 b1 e0 d5 1b 2c 23
       9 -9 -41 -79 0 57 -56 34 75 5 -79 -32 -43 27 44 35
0000e0 03 19 06 f8 91 19 c0 e9 c3 0f 6b 8b 77 18 ca cb
       3 25 6 -8 -111 25 -64 -23 -61 15 107 -117 119 24 -54 -53
0000f0 18 b4 d8 41 ce 2c 1b 3a cb 17 a2 ad 42 d8 8d 1a
       24 -76 -40 65 -50 44 27 58 -53 23 -94 -83 66 -40 -115 26

tfl.pseudo_qconst7 i1 [64, 1, 1, 64]
000000 cb a4 e2 f6 f1 ee e3 5a 15 6e 1c 2d 0f b1 63 81
       -53 -92 -30 -10 -15 -18 -29 90 21 110 28 45 15 -79 99 -127
000010 cd 7a b1 a7 27 17 38 96 55 00 f9 3f 4c 4b d6 42
       -51 122 -79 -89 39 23 56 -106 85 0 -7 63 76 75 -42 66
000020 56 e6 d7 02 da 4b ff b2 8b 1b 32 5a db 38 3b 1a
       86 -26 -41 2 -38 75 -1 -78 -117 27 50 90 -37 56 59 26
000030 e2 a4 05 07 e5 f3 79 df 12 78 29 05 a8 aa c3 2c
       -30 -92 5 7 -27 -13 121 -33 18 120 41 5 -88 -86 -61 44
000040 e2 09 2d 9a 19 7f 2e 0d 25 32 87 d5 2f 3a bd 12
       -30 9 45 -102 25 127 46 13 37 50 -121 -43 47 58 -67 18
000050 ac 6b 1a 40 af f5 dc b1 36 1c 42 ba 73 eb 07 d3
       -84 107 26 64 -81 -11 -36 -79 54 28 66 -70 115 -21 7 -45
000060 1a cc 7a 8e 17 db 2c c0 bb 02 0a d5 b1 2e ab 0f
       26 -52 122 -114 23 -37 44 -64 -69 2 10 -43 -79 46 -85 15
000070 2a ab e3 be 25 5b e1 e1 c7 1b f8 ac 45 ce cf 33
       42 -85 -29 -66 37 91 -31 -31 -57 27 -8 -84 69 -50 -49 51
000080 10 a5 b5 df cb 6a d0 10 e0 8b bb fc e2 b0 5f 2b
       16 -91 -75 -33 -53 106 -48 16 -32 -117 -69 -4 -30 -80 95 43
000090 e2 f0 d9 eb 3b ee 68 e2 ec 57 27 64 ea 0c f5 7f
       -30 -16 -39 -21 59 -18 104 -30 -20 87 39 100 -22 12 -11 127
0000a0 3f 99 00 56 02 07 d3 d4 48 c0 de 26 d1 39 02 13
       63 -103 0 86 2 7 -45 -44 72 -64 -34 38 -47 57 2 19
0000b0 50 ea 20 b4 ec 8a da 40 4c 07 73 08 21 17 ee 33
       80 -22 32 -76 -20 -118 -38 64 76 7 115 8 33 23 -18 51
0000c0 f6 4f 67 51 dc 4c 05 1e f4 2e 40 8e f9 b5 ea 1d
       -10 79 103 81 -36 76 5 30 -12 46 64 -114 -7 -75 -22 29
0000d0 e1 39 ef 48 10 e9 6f bb f4 ae f3 20 a7 9c 8d ff
       -31 57 -17 72 16 -23 111 -69 -12 -82 -13 32 -89 -100 -115 -1
0000e0 9c b6 bd d6 b5 f4 91 2c 5e ae b8 f4 b6 16 7f 00
       -100 -74 -67 -42 -75 -12 -111 44 94 -82 -72 -12 -74 22 127 0
0000f0 cb e0 31 2f 44 23 ab 3d 8e 3b 2c a6 4c 28 45 e0
       -53 -32 49 47 68 35 -85 61 -114 59 44 -90 76 40 69 -32

tfl.pseudo_qconst9 i1 [1, 15, 1, 32]
000000 73 be 03 e2 e8 29 b5 c4 7f 81 ea 15 81 03 a8 9c
       115 -66 3 -30 -24 41 -75 -60 127 -127 -22 21 -127 3 -88 -100
000010 3c 28 09 e7 08 ef 6e 25 fa cf 7f 2c 7f 44 b6 bc
       60 40 9 -25 8 -17 110 37 -6 -49 127 44 127 68 -74 -68
000020 76 ea 81 7f f7 69 c3 cc 2e be 81 0d ac 62 bf 85
       118 -22 -127 127 -9 105 -61 -52 46 -66 -127 13 -84 98 -65 -123
000030 e0 14 68 dc 46 7f 35 ce d3 ca 5e 26 51 25 32 cf
       -32 20 104 -36 70 127 53 -50 -45 -54 94 38 81 37 50 -49
000040 45 81 89 3e f6 7f de f9 4e c4 b3 ee c8 0a ca 9a
       69 -127 -119 62 -10 127 -34 -7 78 -60 -77 -18 -56 10 -54 -102
000050 07 4b e0 02 be 4e cb 1e 81 1a 23 81 5a 5b 39 bb
       7 75 -32 2 -66 78 -53 30 -127 26 35 -127 90 91 57 -69
000060 85 18 9b e2 dc a9 31 da 0b 53 39 cf 9c 4d 18 9b
       -123 24 -101 -30 -36 -87 49 -38 11 83 57 -49 -100 77 24 -101
000070 22 65 c0 24 be f8 a6 7c ec 10 51 02 48 81 01 9d
       34 101 -64 36 -66 -8 -90 124 -20 16 81 2 72 -127 1 -99
000080 91 d6 b9 4c f4 94 f9 93 4a 3f 5c 3b 07 f2 c3 fc
       -111 -42 -71 76 -12 -108 -7 -109 74 63 92 59 7 -14 -61 -4
000090 13 55 df 21 02 38 c4 57 de f0 f9 d5 78 d9 df 8e
       19 85 -33 33 2 56 -60 87 -34 -16 -7 -43 120 -39 -33 -114
0000a0 cd d5 12 60 28 cf 62 81 ff 91 bb e4 fd 30 14 c9
       -51 -43 18 96 40 -49 98 -127 -1 -111 -69 -28 -3 48 20 -55
0000b0 f1 e8 0d 4c 21 f3 ea 98 7b cf 40 25 e4 8f 48 a2
       -15 -24 13 76 33 -13 -22 -104 123 -49 64 37 -28 -113 72 -94
0000c0 c4 d9 b9 46 ed e6 42 ac f1 03 8b de 2c be 9f 1c
       -60 -39 -71 70 -19 -26 66 -84 -15 3 -117 -34 44 -66 -97 28
0000d0 32 da 2c 33 39 fe c5 81 ef 02 a2 64 33 f2 d4 11
       50 -38 44 51 57 -2 -59 -127 -17 2 -94 100 51 -14 -44 17
0000e0 29 f7 26 f8 f0 0d 7f 04 3d eb 4b f6 38 01 81 06
       41 -9 38 -8 -16 13 127 4 61 -21 75 -10 56 1 -127 6
0000f0 23 0c 18 4c 3d 13 c7 a0 18 fe a2 51 89 89 af 50
       35 12 24 76 61 19 -57 -96 24 -2 -94 81 -119 -119 -81 80

tfl.pseudo_qconst11 i1 [1, 9, 1, 32]
000000 eb 23 46 a6 8f dd c9 f7 5e ee a4 df 2d 46 7f 1b
       -21 35 70 -90 -113 -35 -55 -9 94 -18 -92 -33 45 70 127 27
000010 f8 07 ea ef e2 1f 9d a2 18 f9 4e 38 1d c5 fc 18
       -8 7 -22 -17 -30 31 -99 -94 24 -7 78 56 29 -59 -4 24
000020 fe 3b e9 8d f1 f9 24 f9 8c dd 1a e0 f9 74 d0 4c
       -2 59 -23 -115 -15 -7 36 -7 -116 -35 26 -32 -7 116 -48 76
000030 f9 81 15 13 cf 23 99 9d 11 13 c6 05 35 ab f0 16
       -7 -127 21 19 -49 35 -103 -99 17 19 -58 5 53 -85 -16 22
000040 fe 9a f5 3d 81 12 e7 42 81 c7 fb 7c 1d 7f d0 00
       -2 -102 -11 61 -127 18 -25 66 -127 -57 -5 124 29 127 -48 0
000050 e0 5a d3 f5 23 41 5f 81 4e 36 c4 7f a1 7f f9 4d
       -32 90 -45 -11 35 65 95 -127 78 54 -60 127 -95 127 -7 77
000060 ab c8 00 b2 f1 55 0a 0d d0 42 02 5b 08 53 07 a5
       -85 -56 0 -78 -15 85 10 13 -48 66 2 91 8 83 7 -91
000070 30 a4 2d 21 b1 25 59 eb 08 e9 7d dc 15 f8 14 43
       48 -92 45 33 -79 37 89 -21 8 -23 125 -36 21 -8 20 67
000080 cc 84 3f 7f c1 11 03 7f 03 fb c7 f2 f7 6e 19 13
       -52 -124 63 127 -63 17 3 127 3 -5 -57 -14 -9 110 25 19
000090 81 2b ed 7f 86 7f 7f 19 34 c4 7f 4f 81 92 07 fe
       -127 43 -19 127 -122 127 127 25 52 -60 127 79 -127 -110 7 -2
0000a0 d2 f5 32 f4 01 7f 7f 95 04 21 81 46 fd 22 89 e5
       -46 -11 50 -12 1 127 127 -107 4 33 -127 70 -3 34 -119 -27
0000b0 b0 35 18 16 dc fa f4 14 58 e2 22 c7 9d 64 f7 a1
       -80 53 24 22 -36 -6 -12 20 88 -30 34 -57 -99 100 -9 -95
0000c0 c4 7f 06 3b af 11 7e 79 af e3 91 7f c2 27 ea 30
       -60 127 6 59 -81 17 126 121 -81 -29 -111 127 -62 39 -22 48
0000d0 10 51 c2 6d 7f 6e e4 38 2c f1 24 e9 af 67 ac 91
       16 81 -62 109 127 110 -28 56 44 -15 36 -23 -81 103 -84 -111
0000e0 a5 51 39 d4 4e 4a 40 66 1c 7f 19 68 c3 20 c2 b6
       -91 81 57 -44 78 74 64 102 28 127 25 104 -61 32 -62 -74
0000f0 96 7f a2 04 38 e8 95 08 7f d5 22 b7 05 3a d6 81
       -106 127 -94 4 56 -24 -107 8 127 -43 34 -73 5 58 -42 -127

tfl.pseudo_qconst13 i1 [64, 1, 1, 64]
000000 f6 c8 1e fa 37 54 fe 9d 02 60 81 f4 43 26 d2 4c
       -10 -56 30 -6 55 84 -2 -99 2 96 -127 -12 67 38 -46 76
000010 54 98 e5 dc eb 1b 39 24 0d 18 38 f1 45 51 38 cb
       84 -104 -27 -36 -21 27 57 36 13 24 56 -15 69 81 56 -53
000020 00 b3 1b 1c 4c 05 c6 01 72 14 a4 d1 10 1c bd 04
       0 -77 27 28 76 5 -58 1 114 20 -92 -47 16 28 -67 4
000030 14 da 1b f2 d8 d4 25 85 07 09 e4 92 f8 f3 f9 3a
       20 -38 27 -14 -40 -44 37 -123 7 9 -28 -110 -8 -13 -7 58
000040 f6 16 52 4d d9 f3 b6 ab 05 d5 35 55 23 1f 56 0d
       -10 22 82 77 -39 -13 -74 -85 5 -43 53 85 35 31 86 13
000050 47 38 fe e3 38 e0 00 ec 46 22 bc e1 bf 04 b0 1d
       71 56 -2 -29 56 -32 0 -20 70 34 -68 -31 -65 4 -80 29
000060 f6 63 d8 81 50 9e 31 aa 32 02 f1 38 ac 4d fa b2
       -10 99 -40 -127 80 -98 49 -86 50 2 -15 56 -84 77 -6 -78
000070 05 25 f4 0b 13 e1 28 29 42 33 b1 d2 b3 47 35 09
       5 37 -12 11 19 -31 40 41 66 51 -79 -46 -77 71 53 9
000080 da 15 f8 e5 1b e6 a5 3a 1f e4 ef 6e eb fe 13 37
       -38 21 -8 -27 27 -26 -91 58 31 -28 -17 110 -21 -2 19 55
000090 03 cc f8 da 51 b2 26 d9 5a f1 c5 7a 54 cd cd f6
       3 -52 -8 -38 81 -78 38 -39 90 -15 -59 122 84 -51 -51 -10
0000a0 3b 5e 3b 98 49 f4 cb 52 ec 2c 2a 81 c6 ae 34 1d
       59 94 59 -104 73 -12 -53 82 -20 44 42 -127 -58 -82 52 29
0000b0 12 c3 16 ef ed f2 47 45 4b 3a e7 22 35 54 27 ea
       18 -61 22 -17 -19 -14 71 69 75 58 -25 34 53 84 39 -22
0000c0 06 0d 0f c3 28 96 11 50 d2 f2 26 5e f3 10 04 e6
       6 13 15 -61 40 -106 17 80 -46 -14 38 94 -13 16 4 -26
0000d0 3d 0a d0 b9 7f f7 3a 46 02 dd e8 57 62 e4 f1 5e
       61 10 -48 -71 127 -9 58 70 2 -35 -24 87 98 -28 -15 94
0000e0 0e 0a e0 22 07 26 06 14 d3 e1 ea b5 b3 fb a0 56
       14 10 -32 34 7 38 6 20 -45 -31 -22 -75 -77 -5 -96 86
0000f0 1c 9b 2f 69 9c 49 ae af e1 ce c0 54 ce f5 bc 00
       28 -101 47 105 -100 73 -82 -81 -31 -50 -64 84 -50 -11 -68 0

tfl.pseudo_qconst15 i1 [1, 11, 1, 32]
000000 0a 08 3f 0c 68 01 26 41 28 4c 4d 46 f1 7f 92 d5
       10 8 63 12 104 1 38 65 40 76 77 70 -15 127 -110 -43
000010 f6 1b ad 03 4d 1f 4e c6 7f 81 a6 8f ba 81 b2 0c
       -10 27 -83 3 77 31 78 -58 127 -127 -90 -113 -70 -127 -78 12
000020 b9 5b 5c 2c 60 4a 14 c5 5b 58 eb 7f 81 6d c7 17
       -71 91 92 44 96 74 20 -59 91 88 -21 127 -127 109 -57 23
000030 be 44 bd 35 c9 9a c7 ee c9 95 05 14 2d cc 33 ae
       -66 68 -67 53 -55 -102 -57 -18 -55 -107 5 20 45 -52 51 -82
000040 c8 39 74 5a 81 eb 0f 81 7f 60 da 11 a3 69 b5 dd
       -56 57 116 90 -127 -21 15 -127 127 96 -38 17 -93 105 -75 -35
000050 ed f6 f5 fa 95 46 81 af b9 d7 67 8e 7f bf 02 cf
       -19 -10 -11 -6 -107 70 -127 -81 -71 -41 103 -114 127 -65 2 -49
000060 fb be 44 7f d3 24 fb 16 19 6a 9e 5e da cf 8d ad
       -5 -66 68 127 -45 36 -5 22 25 106 -98 94 -38 -49 -115 -83
000070 7f fb 33 02 81 4b 1a ef e5 6e d4 ee 41 23 f8 d6
       127 -5 51 2 -127 75 26 -17 -27 110 -44 -18 65 35 -8 -42
000080 65 af fc 18 1c 29 58 b9 2c 3c bc d6 3c 56 81 8f
       101 -81 -4 24 28 41 88 -71 44 60 -68 -42 60 86 -127 -113
000090 7e bf 2a f7 03 d3 15 38 f3 0c 27 f8 e6 ea d6 81
       126 -65 42 -9 3 -45 21 56 -13 12 39 -8 -26 -22 -42 -127
0000a0 5e c1 df 53 0e 13 7f 20 e5 cb 10 e0 1d 40 27 12
       94 -63 -33 83 14 19 127 32 -27 -53 16 -32 29 64 39 18
0000b0 6a 50 d5 88 4d a8 b4 08 f9 1d 7f 1e ab c7 52 e1
       106 80 -43 -120 77 -88 -76 8 -7 29 127 30 -85 -57 82 -31
0000c0 3a d9 c2 a1 c1 4c fc ad bb 42 19 e5 e5 b5 da 1a
       58 -39 -62 -95 -63 76 -4 -83 -69 66 25 -27 -27 -75 -38 26
0000d0 21 31 14 4e ee 97 b2 f7 5e ef 16 69 ae 08 7c 30
       33 49 20 78 -18 -105 -78 -9 94 -17 22 105 -82 8 124 48
0000e0 24 78 c3 8e bf c2 ec cb f3 fc 39 a9 d1 8c f8 2a
       36 120 -61 -114 -65 -62 -20 -53 -13 -4 57 -87 -47 -116 -8 42
0000f0 d3 8d b2 81 fb 1c 43 1a 53 37 4d 7f f6 f5 ed e7
       -45 -115 -78 -127 -5 28 67 26 83 55 77 127 -10 -11 -19 -25

tfl.pseudo_qconst17 i1 [1, 7, 1, 32]
000000 22 7f 24 60 a2 d5 d4 0b 25 d6 12 9e 13 81 ab 36
       34 127 36 96 -94 -43 -44 11 37 -42 18 -98 19 -127 -85 54
000010 d1 ca 3c e0 68 22 c1 e0 14 f8 da 81 0c f8 0a 8b
       -47 -54 60 -32 104 34 -63 -32 20 -8 -38 -127 12 -8 10 -117
000020 55 12 d0 81 81 ef 7f 98 61 6c 4a ee 1c d4 c6 5d
       85 18 -48 -127 -127 -17 127 -104 97 108 74 -18 28 -44 -58 93
000030 0a 2b 7f b5 81 25 81 da 89 c8 81 bc 7f 43 01 10
       10 43 127 -75 -127 37 -127 -38 -119 -56 -127 -68 127 67 1 16
000040 81 02 bb a7 50 38 36 00 1d 7f 39 d5 4b c8 e7 a2
       -127 2 -69 -89 80 56 54 0 29 127 57 -43 75 -56 -25 -94
000050 fd 70 7a 9e e2 06 03 81 21 99 53 ad 48 54 3f 30
       -3 112 122 -98 -30 6 3 -127 33 -103 83 -83 72 84 63 48
000060 95 1c dc b3 d8 ef 6f 58 2c 4f 42 c1 c3 de 7f 1c
       -107 28 -36 -77 -40 -17 111 88 44 79 66 -63 -61 -34 127 28
000070 ed 53 85 48 3e 22 02 d2 66 f1 8e 92 2b 20 d3 7f
       -19 83 -123 72 62 34 2 -46 102 -15 -114 -110 43 32 -45 127
000080 3b f6 81 a6 ff 60 b3 87 a2 6a 7f 81 af 20 c9 81
       59 -10 -127 -90 -1 96 -77 -121 -94 106 127 -127 -81 32 -55 -127
000090 36 7f d8 a5 d4 0d 45 c6 7f 7f 72 f0 fd 44 ac 63
       54 127 -40 -91 -44 13 69 -58 127 127 114 -16 -3 68 -84 99
0000a0 25 f4 ba 93 bf 7f b0 7f c2 00 76 c8 0d f2 f4 87
       37 -12 -70 -109 -65 127 -80 127 -62 0 118 -56 13 -14 -12 -121
0000b0 b7 3c 98 56 ea 81 97 4d fd 02 42 30 1c f3 81 35
       -73 60 -104 86 -22 -127 -105 77 -3 2 66 48 28 -13 -127 53
0000c0 cb 04 c8 23 c1 43 32 76 81 08 47 aa 7f cf f0 9c
       -53 4 -56 35 -63 67 50 118 -127 8 71 -86 127 -49 -16 -100
0000d0 81 be 58 81 b2 25 a8 af d4 0f b5 3c 3f 81 fc 32
       -127 -66 88 -127 -78 37 -88 -81 -44 15 -75 60 63 -127 -4 50

tfl.pseudo_qconst19 i1 [64, 1, 1, 32]
000000 51 a9 2e 27 7c ab 59 81 f6 a7 12 0b b2 da fc e1
       81 -87 46 39 124 -85 89 -127 -10 -89 18 11 -78 -38 -4 -31
000010 af e1 6a 4a 48 ac 21 a2 3a cf f3 fc 19 ec ff 16
       -81 -31 106 74 72 -84 33 -94 58 -49 -13 -4 25 -20 -1 22
000020 28 d9 e0 81 6d 0d f7 fd 26 bb 09 d0 db 34 08 11
       40 -39 -32 -127 109 13 -9 -3 38 -69 9 -48 -37 52 8 17
000030 ef a5 29 dc 07 ca ec b7 27 e4 c0 82 45 f2 b6 0a
       -17 -91 41 -36 7 -54 -20 -73 39 -28 -64 -126 69 -14 -74 10
000040 ad ef b3 dd 16 bf 3b d4 f0 f9 cc be 1f fb b7 f9
       -83 -17 -77 -35 22 -65 59 -44 -16 -7 -52 -66 31 -5 -73 -7
000050 69 fb 4b 52 24 7f 1b eb 1c 30 a0 5d ea b8 6c c3
       105 -5 75 82 36 127 27 -21 28 48 -96 93 -22 -72 108 -61
000060 32 2f 1b ee b8 14 6c 39 38 1e 81 fe ac 66 b3 e5
       50 47 27 -18 -72 20 108 57 56 30 -127 -2 -84 102 -77 -27
000070 52 c6 20 0e 2b 02 1f 10 11 2d cb 44 2c b4 1e 1a
       82 -58 32 14 43 2 31 16 17 45 -53 68 44 -76 30 26
000080 4d 51 e5 2b e8 16 4f 00 47 eb 61 04 1d 7f c7 16
       77 81 -27 43 -24 22 79 0 71 -21 97 4 29 127 -57 22
000090 b4 de af 1a 63 d4 f2 dd 5e d6 3f e2 08 09 14 34
       -76 -34 -81 26 99 -44 -14 -35 94 -42 63 -30 8 9 20 52
0000a0 6f 37 0d f7 14 32 23 96 8d 69 f6 b2 05 32 ca d9
       111 55 13 -9 20 50 35 -106 -115 105 -10 -78 5 50 -54 -39
0000b0 da d7 d4 74 43 83 68 10 81 70 fd a1 6a 8a ac 47
       -38 -41 -44 116 67 -125 104 16 -127 112 -3 -95 106 -118 -84 71
0000c0 fc cc da d5 aa c8 53 38 40 81 b4 c7 eb 63 36 c2
       -4 -52 -38 -43 -86 -56 83 56 64 -127 -76 -57 -21 99 54 -62
0000d0 d3 1e bb 0e 1d 23 3a ab d8 52 22 3f 01 e6 08 f3
       -45 30 -69 14 29 35 58 -85 -40 82 34 63 1 -26 8 -13
0000e0 a6 8a dc eb 09 3c 3e 64 15 c6 34 f8 04 56 d5 0c
       -90 -118 -36 -21 9 60 62 100 21 -58 52 -8 4 86 -43 12
0000f0 c1 db 10 c4 f1 2d b7 37 ca e4 08 46 1e 32 fc 7f
       -63 -37 16 -60 -15 45 -73 55 -54 -28 8 70 30 50 -4 127

tfl.pseudo_qconst21 i1 [1, 5, 1, 32]
000000 89 17 3b 7f d6 e1 e3 7f b5 38 9b 55 09 7f 65 e3
       -119 23 59 127 -42 -31 -29 127 -75 56 -101 85 9 127 101 -29
000010 7f 7f c3 d9 81 03 ca 2d 45 4e d9 f2 0e 00 81 b6
       127 127 -61 -39 -127 3 -54 45 69 78 -39 -14 14 0 -127 -74
000020 53 2a 06 31 81 02 62 5c da 47 1c a4 a8 14 7f 7f
       83 42 6 49 -127 2 98 92 -38 71 28 -92 -88 20 127 127
000030 7e 2a 6c 6a 3b 7f 81 38 bf e6 db 49 40 0c 1b b1
       126 42 108 106 59 127 -127 56 -65 -26 -37 73 64 12 27 -79
000040 7f 01 09 5f 0f e1 34 12 f8 9a e3 ee 74 3d b3 ab
       127 1 9 95 15 -31 52 18 -8 -102 -29 -18 116 61 -77 -85
000050 71 66 e1 ce 6d 6b 67 f8 81 0b 4f 1b f9 7f 3b 7f
       113 102 -31 -50 109 107 103 -8 -127 11 79 27 -7 127 59 127
000060 9b e0 c1 14 cb 81 81 4c 7f aa 52 10 25 52 8d b0
       -101 -32 -63 20 -53 -127 -127 76 127 -86 82 16 37 82 -115 -80
000070 59 08 f1 3c 18 d4 37 81 a9 81 cd 51 fb d6 24 4e
       89 8 -15 60 24 -44 55 -127 -87 -127 -51 81 -5 -42 36 78
000080 90 81 81 b7 39 c6 de 6c 3b 7f 7f 7f 7f 66 33 c3
       -112 -127 -127 -73 57 -58 -34 108 59 127 127 127 127 102 51 -61
000090 2a f0 7f 81 f2 f9 94 56 91 00 81 7f 81 71 d7 ba
       42 -16 127 -127 -14 -7 -108 86 -111 0 -127 127 -127 113 -41 -70

tfl.pseudo_qconst23 i1 [32, 5, 1, 40]
000000 0a c7 c8 dc f3 14 bc b3 c9 1c d3 9c e9 e8 d6 c6
       10 -57 -56 -36 -13 20 -68 -77 -55 28 -45 -100 -23 -24 -42 -58
000010 f5 fd e3 1e 12 db 13 f1 38 de 26 d0 01 ce de e9
       -11 -3 -29 30 18 -37 19 -15 56 -34 38 -48 1 -50 -34 -23
000020 33 16 f3 d3 28 fe 07 07 18 ec c0 13 24 c8 0b 8a
       51 22 -13 -45 40 -2 7 7 24 -20 -64 19 36 -56 11 -118
000030 db f5 b8 b8 ac 0a ca f7 f5 e1 ee 2d 2e 11 10 37
       -37 -11 -72 -72 -84 10 -54 -9 -11 -31 -18 45 46 17 16 55
000040 c8 c0 2c 9e c4 f1 0a ef e2 18 c7 ee 10 df 6b e5
       -56 -64 44 -98 -60 -15 10 -17 -30 24 -57 -18 16 -33 107 -27
000050 fd f2 f6 f0 03 18 15 dc 03 19 ef bd b3 3e e6 02
       -3 -14 -10 -16 3 24 21 -36 3 25 -17 -67 -77 62 -26 2
000060 10 0e 05 17 56 32 12 2f e8 e8 c4 e8 03 cf fb b4
       16 14 5 23 86 50 18 47 -24 -24 -60 -24 3 -49 -5 -76
000070 14 d5 10 2f 43 17 0f 00 e3 08 0e f9 1d f0 23 17
       20 -43 16 47 67 23 15 0 -29 8 14 -7 29 -16 35 23
000080 28 fb f5 08 ee d6 fc 12 fb eb 04 ff 3a 41 f5 e7
       40 -5 -11 8 -18 -42 -4 18 -5 -21 4 -1 58 65 -11 -25
000090 e4 c2 e1 f7 d9 f0 28 e2 10 d7 f2 4a 30 4a fc 6a
       -28 -62 -31 -9 -39 -16 40 -30 16 -41 -14 74 48 74 -4 106
0000a0 ef da f4 d9 dc f3 1b ff 0d f6 e5 da ad e0 ca cb
       -17 -38 -12 -39 -36 -13 27 -1 13 -10 -27 -38 -83 -32 -54 -53
0000b0 19 ad 07 17 7f 6c 2a d4 e3 c3 c6 e1 e8 f6 34 b5
       25 -83 7 23 127 108 42 -44 -29 -61 -58 -31 -24 -10 52 -75
0000c0 c6 d7 e0 3a c3 1e 29 f1 23 f1 2d f6 e4 e0 fc e6
       -58 -41 -32 58 -61 30 41 -15 35 -15 45 -10 -28 -32 -4 -26
0000d0 19 19 18 d3 e2 e1 ff 1e fe de 08 e0 0f 34 20 06
       25 25 24 -45 -30 -31 -1 30 -2 -34 8 -32 15 52 32 6
0000e0 ed ff 10 f5 f9 05 ff 05 eb 0c 18 44 0e 4f e4 07
       -19 -1 16 -11 -7 5 -1 5 -21 12 24 68 14 79 -28 7
0000f0 0a 0c 31 f5 11 e5 f3 e9 ff df 05 08 0f fb fe ee
       10 12 49 -11 17 -27 -13 -23 -1 -33 5 8 15 -5 -2 -18

tfl.pseudo_qconst24 i1 [1, 22, 1, 64] scale=0.030066762 zero_point=-128
000000 80 80 80 80 80 80 80 80 80 80 80 80 80 80 80 80
       0.0 0.0 0.0 0.0 0.0 0.0 0.0 0.0 0.0 0.0 0.0 0.0 0.0 0.0 0.0 0.0
000010 80 80 80 80 80 80 80 80 80 80 80 80 80 80 80 80
       0.0 0.0 0.0 0.0 0.0 0.0 0.0 0.0 0.0 0.0 0.0 0.0 0.0 0.0 0.0 0.0
000020 80 80 80 80 80 80 80 80 80 80 80 80 80 80 80 80
       0.0 0.0 0.0 0.0 0.0 0.0 0.0 0.0 0.0 0.0 0.0 0.0 0.0 0.0 0.0 0.0
000030 80 80 80 80 80 80 80 80 80 80 80 80 80 80 80 80
       0.0 0.0 0.0 0.0 0.0 0.0 0.0 0.0 0.0 0.0 0.0 0.0 0.0 0.0 0.0 0.0
000040 80 80 80 80 80 80 80 80 80 80 80 80 80 80 80 80
       0.0 0.0 0.0 0.0 0.0 0.0 0.0 0.0 0.0 0.0 0.0 0.0 0.0 0.0 0.0 0.0
000050 80 80 80 80 80 80 80 80 80 80 80 80 80 80 80 80
       0.0 0.0 0.0 0.0 0.0 0.0 0.0 0.0 0.0 0.0 0.0 0.0 0.0 0.0 0.0 0.0
000060 80 80 80 80 80 80 80 80 80 80 80 80 80 80 80 80
       0.0 0.0 0.0 0.0 0.0 0.0 0.0 0.0 0.0 0.0 0.0 0.0 0.0 0.0 0.0 0.0
000070 80 80 80 80 80 80 80 80 80 80 80 80 80 80 80 80
       0.0 0.0 0.0 0.0 0.0 0.0 0.0 0.0 0.0 0.0 0.0 0.0 0.0 0.0 0.0 0.0
000080 80 80 80 80 80 80 80 80 80 80 80 80 80 80 80 80
       0.0 0.0 0.0 0.0 0.0 0.0 0.0 0.0 0.0 0.0 0.0 0.0 0.0 0.0 0.0 0.0
000090 80 80 80 80 80 80 80 80 80 80 80 80 80 80 80 80
       0.0 0.0 0.0 0.0 0.0 0.0 0.0 0.0 0.0 0.0 0.0 0.0 0.0 0.0 0.0 0.0
0000a0 80 80 80 80 80 80 80 80 80 80 80 80 80 80 80 80
       0.0 0.0 0.0 0.0 0.0 0.0 0.0 0.0 0.0 0.0 0.0 0.0 0.0 0.0 0.0 0.0
0000b0 80 80 80 80 80 80 80 80 80 80 80 80 80 80 80 80
       0.0 0.0 0.0 0.0 0.0 0.0 0.0 0.0 0.0 0.0 0.0 0.0 0.0 0.0 0.0 0.0
0000c0 80 80 80 80 80 80 80 80 80 80 80 80 80 80 80 80
       0.0 0.0 0.0 0.0 0.0 0.0 0.0 0.0 0.0 0.0 0.0 0.0 0.0 0.0 0.0 0.0
0000d0 80 80 80 80 80 80 80 80 80 80 80 80 80 80 80 80
       0.0 0.0 0.0 0.0 0.0 0.0 0.0 0.0 0.0 0.0 0.0 0.0 0.0 0.0 0.0 0.0
0000e0 80 80 80 80 80 80 80 80 80 80 80 80 80 80 80 80
       0.0 0.0 0.0 0.0 0.0 0.0 0.0 0.0 0.0 0.0 0.0 0.0 0.0 0.0 0.0 0.0
0000f0 80 80 80 80 80 80 80 80 80 80 80 80 80 80 80 80
       0.0 0.0 0.0 0.0 0.0 0.0 0.0 0.0 0.0 0.0 0.0 0.0 0.0 0.0 0.0 0.0

tfl.pseudo_qconst25 i1 [1, 16, 1, 64] scale=0.03212614 zero_point=-128
000000 80 80 80 80 80 80 80 80 80 80 80 80 80 80 80 80
       0.0 0.0 0.0 0.0 0.0 0.0 0.0 0.0 0.0 0.0 0.0 0.0 0.0 0.0 0.0 0.0
000010 80 80 80 80 80 80 80 80 80 80 80 80 80 80 80 80
       0.0 0.0 0.0 0.0 0.0 0.0 0.0 0.0 0.0 0.0 0.0 0.0 0.0 0.0 0.0 0.0
000020 80 80 80 80 80 80 80 80 80 80 80 80 80 80 80 80
       0.0 0.0 0.0 0.0 0.0 0.0 0.0 0.0 0.0 0.0 0.0 0.0 0.0 0.0 0.0 0.0
000030 80 80 80 80 80 80 80 80 80 80 80 80 80 80 80 80
       0.0 0.0 0.0 0.0 0.0 0.0 0.0 0.0 0.0 0.0 0.0 0.0 0.0 0.0 0.0 0.0
000040 80 80 80 80 80 80 80 80 80 80 80 80 80 80 80 80
       0.0 0.0 0.0 0.0 0.0 0.0 0.0 0.0 0.0 0.0 0.0 0.0 0.0 0.0 0.0 0.0
000050 80 80 80 80 80 80 80 80 80 80 80 80 80 80 80 80
       0.0 0.0 0.0 0.0 0.0 0.0 0.0 0.0 0.0 0.0 0.0 0.0 0.0 0.0 0.0 0.0
000060 80 80 80 80 80 80 80 80 80 80 80 80 80 80 80 80
       0.0 0.0 0.0 0.0 0.0 0.0 0.0 0.0 0.0 0.0 0.0 0.0 0.0 0.0 0.0 0.0
000070 80 80 80 80 80 80 80 80 80 80 80 80 80 80 80 80
       0.0 0.0 0.0 0.0 0.0 0.0 0.0 0.0 0.0 0.0 0.0 0.0 0.0 0.0 0.0 0.0
000080 80 80 80 80 80 80 80 80 80 80 80 80 80 80 80 80
       0.0 0.0 0.0 0.0 0.0 0.0 0.0 0.0 0.0 0.0 0.0 0.0 0.0 0.0 0.0 0.0
000090 80 80 80 80 80 80 80 80 80 80 80 80 80 80 80 80
       0.0 0.0 0.0 0.0 0.0 0.0 0.0 0.0 0.0 0.0 0.0 0.0 0.0 0.0 0.0 0.0
0000a0 80 80 80 80 80 80 80 80 80 80 80 80 80 80 80 80
       0.0 0.0 0.0 0.0 0.0 0.0 0.0 0.0 0.0 0.0 0.0 0.0 0.0 0.0 0.0 0.0
0000b0 80 80 80 80 80 80 80 80 80 80 80 80 80 80 80 80
       0.0 0.0 0.0 0.0 0.0 0.0 0.0 0.0 0.0 0.0 0.0 0.0 0.0 0.0 0.0 0.0
0000c0 80 80 80 80 80 80 80 80 80 80 80 80 80 80 80 80
       0.0 0.0 0.0 0.0 0.0 0.0 0.0 0.0 0.0 0.0 0.0 0.0 0.0 0.0 0.0 0.0
0000d0 80 80 80 80 80 80 80 80 80 80 80 80 80 80 80 80
       0.0 0.0 0.0 0.0 0.0 0.0 0.0 0.0 0.0 0.0 0.0 0.0 0.0 0.0 0.0 0.0
0000e0 80 80 80 80 80 80 80 80 80 80 80 80 80 80 80 80
       0.0 0.0 0.0 0.0 0.0 0.0 0.0 0.0 0.0 0.0 0.0 0.0 0.0 0.0 0.0 0.0
0000f0 80 80 80 80 80 80 80 80 80 80 80 80 80 80 80 80
       0.0 0.0 0.0 0.0 0.0 0.0 0.0 0.0 0.0 0.0 0.0 0.0 0.0 0.0 0.0 0.0

tfl.pseudo_qconst26 i1 [1, 2, 1, 40] scale=0.101960786 zero_point=-128
000000 80 80 80 80 80 80 80 80 80 80 80 80 80 80 80 80
       0.0 0.0 0.0 0.0 0.0 0.0 0.0 0.0 0.0 0.0 0.0 0.0 0.0 0.0 0.0 0.0
000010 80 80 80 80 80 80 80 80 80 80 80 80 80 80 80 80
       0.0 0.0 0.0 0.0 0.0 0.0 0.0 0.0 0.0 0.0 0.0 0.0 0.0 0.0 0.0 0.0
000020 80 80 80 80 80 80 80 80 80 80 80 80 80 80 80 80
       0.0 0.0 0.0 0.0 0.0 0.0 0.0 0.0 0.0 0.0 0.0 0.0 0.0 0.0 0.0 0.0
000030 80 80 80 80 80 80 80 80 80 80 80 80 80 80 80 80
       0.0 0.0 0.0 0.0 0.0 0.0 0.0 0.0 0.0 0.0 0.0 0.0 0.0 0.0 0.0 0.0
000040 80 80 80 80 80 80 80 80 80 80 80 80 80 80 80 80
       0.0 0.0 0.0 0.0 0.0 0.0 0.0 0.0 0.0 0.0 0.0 0.0 0.0 0.0 0.0 0.0

tfl.pseudo_qconst27 i1 [1, 4, 1, 32] scale=0.63635534 zero_point=-128
000000 80 80 80 80 80 80 80 80 80 80 80 80 80 80 80 80
       0.0 0.0 0.0 0.0 0.0 0.0 0.0 0.0 0.0 0.0 0.0 0.0 0.0 0.0 0.0 0.0
000010 80 80 80 80 80 80 80 80 80 80 80 80 80 80 80 80
       0.0 0.0 0.0 0.0 0.0 0.0 0.0 0.0 0.0 0.0 0.0 0.0 0.0 0.0 0.0 0.0
000020 80 80 80 80 80 80 80 80 80 80 80 80 80 80 80 80
       0.0 0.0 0.0 0.0 0.0 0.0 0.0 0.0 0.0 0.0 0.0 0.0 0.0 0.0 0.0 0.0
000030 80 80 80 80 80 80 80 80 80 80 80 80 80 80 80 80
       0.0 0.0 0.0 0.0 0.0 0.0 0.0 0.0 0.0 0.0 0.0 0.0 0.0 0.0 0.0 0.0
000040 80 80 80 80 80 80 80 80 80 80 80 80 80 80 80 80
       0.0 0.0 0.0 0.0 0.0 0.0 0.0 0.0 0.0 0.0 0.0 0.0 0.0 0.0 0.0 0.0
000050 80 80 80 80 80 80 80 80 80 80 80 80 80 80 80 80
       0.0 0.0 0.0 0.0 0.0 0.0 0.0 0.0 0.0 0.0 0.0 0.0 0.0 0.0 0.0 0.0
000060 80 80 80 80 80 80 80 80 80 80 80 80 80 80 80 80
       0.0 0.0 0.0 0.0 0.0 0.0 0.0 0.0 0.0 0.0 0.0 0.0 0.0 0.0 0.0 0.0
000070 80 80 80 80 80 80 80 80 80 80 80 80 80 80 80 80
       0.0 0.0 0.0 0.0 0.0 0.0 0.0 0.0 0.0 0.0 0.0 0.0 0.0 0.0 0.0 0.0

tfl.pseudo_qconst28 i1 [1, 10, 1, 64] scale=0.048089396 zero_point=-128
000000 80 80 80 80 80 80 80 80 80 80 80 80 80 80 80 80
       0.0 0.0 0.0 0.0 0.0 0.0 0.0 0.0 0.0 0.0 0.0 0.0 0.0 0.0 0.0 0.0
000010 80 80 80 80 80 80 80 80 80 80 80 80 80 80 80 80
       0.0 0.0 0.0 0.0 0.0 0.0 0.0 0.0 0.0 0.0 0.0 0.0 0.0 0.0 0.0 0.0
000020 80 80 80 80 80 80 80 80 80 80 80 80 80 80 80 80
       0.0 0.0 0.0 0.0 0.0 0.0 0.0 0.0 0.0 0.0 0.0 0.0 0.0 0.0 0.0 0.0
000030 80 80 80 80 80 80 80 80 80 80 80 80 80 80 80 80
       0.0 0.0 0.0 0.0 0.0 0.0 0.0 0.0 0.0 0.0 0.0 0.0 0.0 0.0 0.0 0.0
000040 80 80 80 80 80 80 80 80 80 80 80 80 80 80 80 80
       0.0 0.0 0.0 0.0 0.0 0.0 0.0 0.0 0.0 0.0 0.0 0.0 0.0 0.0 0.0 0.0
000050 80 80 80 80 80 80 80 80 80 80 80 80 80 80 80 80
       0.0 0.0 0.0 0.0 0.0 0.0 0.0 0.0 0.0 0.0 0.0 0.0 0.0 0.0 0.0 0.0
000060 80 80 80 80 80 80 80 80 80 80 80 80 80 80 80 80
       0.0 0.0 0.0 0.0 0.0 0.0 0.0 0.0 0.0 0.0 0.0 0.0 0.0 0.0 0.0 0.0
000070 80 80 80 80 80 80 80 80 80 80 80 80 80 80 80 80
       0.0 0.0 0.0 0.0 0.0 0.0 0.0 0.0 0.0 0.0 0.0 0.0 0.0 0.0 0.0 0.0
000080 80 80 80 80 80 80 80 80 80 80 80 80 80 80 80 80
       0.0 0.0 0.0 0.0 0.0 0.0 0.0 0.0 0.0 0.0 0.0 0.0 0.0 0.0 0.0 0.0
000090 80 80 80 80 80 80 80 80 80 80 80 80 80 80 80 80
       0.0 0.0 0.0 0.0 0.0 0.0 0.0 0.0 0.0 0.0 0.0 0.0 0.0 0.0 0.0 0.0
0000a0 80 80 80 80 80 80 80 80 80 80 80 80 80 80 80 80
       0.0 0.0 0.0 0.0 0.0 0.0 0.0 0.0 0.0 0.0 0.0 0.0 0.0 0.0 0.0 0.0
0000b0 80 80 80 80 80 80 80 80 80 80 80 80 80 80 80 80
       0.0 0.0 0.0 0.0 0.0 0.0 0.0 0.0 0.0 0.0 0.0 0.0 0.0 0.0 0.0 0.0
0000c0 80 80 80 80 80 80 80 80 80 80 80 80 80 80 80 80
       0.0 0.0 0.0 0.0 0.0 0.0 0.0 0.0 0.0 0.0 0.0 0.0 0.0 0.0 0.0 0.0
0000d0 80 80 80 80 80 80 80 80 80 80 80 80 80 80 80 80
       0.0 0.0 0.0 0.0 0.0 0.0 0.0 0.0 0.0 0.0 0.0 0.0 0.0 0.0 0.0 0.0
0000e0 80 80 80 80 80 80 80 80 80 80 80 80 80 80 80 80
       0.0 0.0 0.0 0.0 0.0 0.0 0.0 0.0 0.0 0.0 0.0 0.0 0.0 0.0 0.0 0.0
0000f0 80 80 80 80 80 80 80 80 80 80 80 80 80 80 80 80
       0.0 0.0 0.0 0.0 0.0 0.0 0.0 0.0 0.0 0.0 0.0 0.0 0.0 0.0 0.0 0.0

tfl.pseudo_qconst29 i1 [1, 14, 1, 64] scale=0.036365353 zero_point=-128
000000 80 80 80 80 80 80 80 80 80 80 80 80 80 80 80 80
       0.0 0.0 0.0 0.0 0.0 0.0 0.0 0.0 0.0 0.0 0.0 0.0 0.0 0.0 0.0 0.0
000010 80 80 80 80 80 80 80 80 80 80 80 80 80 80 80 80
       0.0 0.0 0.0 0.0 0.0 0.0 0.0 0.0 0.0 0.0 0.0 0.0 0.0 0.0 0.0 0.0
000020 80 80 80 80 80 80 80 80 80 80 80 80 80 80 80 80
       0.0 0.0 0.0 0.0 0.0 0.0 0.0 0.0 0.0 0.0 0.0 0.0 0.0 0.0 0.0 0.0
000030 80 80 80 80 80 80 80 80 80 80 80 80 80 80 80 80
       0.0 0.0 0.0 0.0 0.0 0.0 0.0 0.0 0.0 0.0 0.0 0.0 0.0 0.0 0.0 0.0
000040 80 80 80 80 80 80 80 80 80 80 80 80 80 80 80 80
       0.0 0.0 0.0 0.0 0.0 0.0 0.0 0.0 0.0 0.0 0.0 0.0 0.0 0.0 0.0 0.0
000050 80 80 80 80 80 80 80 80 80 80 80 80 80 80 80 80
       0.0 0.0 0.0 0.0 0.0 0.0 0.0 0.0 0.0 0.0 0.0 0.0 0.0 0.0 0.0 0.0
000060 80 80 80 80 80 80 80 80 80 80 80 80 80 80 80 80
       0.0 0.0 0.0 0.0 0.0 0.0 0.0 0.0 0.0 0.0 0.0 0.0 0.0 0.0 0.0 0.0
000070 80 80 80 80 80 80 80 80 80 80 80 80 80 80 80 80
       0.0 0.0 0.0 0.0 0.0 0.0 0.0 0.0 0.0 0.0 0.0 0.0 0.0 0.0 0.0 0.0
000080 80 80 80 80 80 80 80 80 80 80 80 80 80 80 80 80
       0.0 0.0 0.0 0.0 0.0 0.0 0.0 0.0 0.0 0.0 0.0 0.0 0.0 0.0 0.0 0.0
000090 80 80 80 80 80 80 80 80 80 80 80 80 80 80 80 80
       0.0 0.0 0.0 0.0 0.0 0.0 0.0 0.0 0.0 0.0 0.0 0.0 0.0 0.0 0.0 0.0
0000a0 80 80 80 80 80 80 80 80 80 80 80 80 80 80 80 80
       0.0 0.0 0.0 0.0 0.0 0.0 0.0 0.0 0.0 0.0 0.0 0.0 0.0 0.0 0.0 0.0
0000b0 80 80 80 80 80 80 80 80 80 80 80 80 80 80 80 80
       0.0 0.0 0.0 0.0 0.0 0.0 0.0 0.0 0.0 0.0 0.0 0.0 0.0 0.0 0.0 0.0
0000c0 80 80 80 80 80 80 80 80 80 80 80 80 80 80 80 80
       0.0 0.0 0.0 0.0 0.0 0.0 0.0 0.0 0.0 0.0 0.0 0.0 0.0 0.0 0.0 0.0
0000d0 80 80 80 80 80 80 80 80 80 80 80 80 80 80 80 80
       0.0 0.0 0.0 0.0 0.0 0.0 0.0 0.0 0.0 0.0 0.0 0.0 0.0 0.0 0.0 0.0
0000e0 80 80 80 80 80 80 80 80 80 80 80 80 80 80 80 80
       0.0 0.0 0.0 0.0 0.0 0.0 0.0 0.0 0.0 0.0 0.0 0.0 0.0 0.0 0.0 0.0
0000f0 80 80 80 80 80 80 80 80 80 80 80 80 80 80 80 80
       0.0 0.0 0.0 0.0 0.0 0.0 0.0 0.0 0.0 0.0 0.0 0.0 0.0 0.0 0.0 0.0
