models/v2/casita.tflite (tflite, 60944 bytes, 18 tensors)

tfl.pseudo_qconst1 i1 [1, 1088] scale=0.0020017247 zero_point=0
00000000: 01f8 cae7 fad6 fae8 f5f6 e936 ebd0 d2df
00000010: 0ee7 de14 f1f1 e1d9 bbde dacd da11 04f3
00000020: cd12 f4e4 addb e2e6 e31f e0be ebcc efef
00000030: b8dc ded2 1201 d2db 96bf d115 ed06 1714
00000040: f31e f9f5 bdd1 1ee5 1ccc ca13 1400 02e8
00000050: 060d f1ff 09f8 09ff e1df 010a c1f7 fbdc
00000060: d1de f900 c207 fdea e710 0211 f0ed c7e8
00000070: e2cf bfd2 04f0 ef01 ccff ba10 1013 f5f4
00000080: e807 fa14 f6ff ebb9 14c8 e3f8 d814 1afa
00000090: 27ff e627 f9d8 d9de d607 ebee bc22 0fe4
000000a0: abf9 2bfa d4d2 daed dd30 0ff5 08fc fade
000000b0: c2d3 f2e2 0dc2 d5f7 fcfc d91d 07e8 c5e7
000000c0: e718 0403 ba21 22bf f4ce c4e1 d0fa ebf1
000000d0: 2b15 eb0d f8f9 01cf fbff ef05 d804 f1fb
000000e0: c916 24ec c5fc d9ae 021d ecfc efde f6d4
000000f0: f9c3 00da 06fe d5f8 c5ef 03fc 0b17 fbd4
0.0020017247 -0.016013797 -0.108093135 -0.050043117 -0.012010348 -0.08407243 -0.012010348 -0.048041392
-0.02201897 -0.020017248 -0.046039667 0.108093135 -0.042036217 -0.096082784 -0.092079334 -0.066056915
0.028024144 -0.050043117 -0.06805864 0.040034495 -0.03002587 -0.03002587 -0.062053464 -0.078067265
-0.138119 -0.06805864 -0.07606554 -0.10208796 -0.07606554 0.03402932 0.008006899 -0.026022421
-0.10208796 0.036031045 -0.024020696 -0.05604829 -0.16614315 -0.074063815 -0.06005174 -0.052044842
-0.058050014 0.062053464 -0.06405519 -0.13211383 -0.042036217 -0.104089685 -0.03402932 -0.03402932
-0.14412418 -0.07206209 -0.06805864 -0.092079334 0.036031045 0.0020017247 -0.092079334 -0.074063815
-0.21218282 -0.1301121 -0.09408106 0.042036217 -0.03803277 0.012010348 0.046039667 0.040034495
-0.026022421 0.06005174 -0.014012072 -0.02201897 -0.13411555 -0.09408106 0.06005174 -0.054046568
0.05604829 -0.104089685 -0.108093135 0.03803277 0.040034495 0.0 0.0040034493 -0.048041392
0.012010348 0.026022421 -0.03002587 -0.0020017247 0.018015523 -0.016013797 0.018015523 -0.0020017247
-0.062053464 -0.066056915 0.0020017247 0.020017248 -0.12610866 -0.018015523 -0.010008624 -0.07206209
-0.09408106 -0.06805864 -0.014012072 0.0 -0.12410693 0.014012072 -0.006005174 -0.04403794
-0.050043117 0.032027595 0.0040034493 0.03402932 -0.032027595 -0.03803277 -0.1140983 -0.048041392
-0.06005174 -0.09808451 -0.1301121 -0.092079334 0.008006899 -0.032027595 -0.03402932 0.0020017247
-0.104089685 -0.0020017247 -0.14012073 0.032027595 0.032027595 0.03803277 -0.02201897 -0.024020696
-0.048041392 0.014012072 -0.012010348 0.040034495 -0.020017248 -0.0020017247 -0.042036217 -0.14212245
0.040034495 -0.11209658 -0.058050014 -0.016013797 -0.08006899 0.040034495 0.052044842 -0.012010348
0.078067265 -0.0020017247 -0.052044842 0.078067265 -0.014012072 -0.08006899 -0.078067265 -0.06805864
-0.08407243 0.014012072 -0.042036217 -0.036031045 -0.13611728 0.06805864 0.03002587 -0.05604829
-0.1701466 -0.014012072 0.08607416 -0.012010348 -0.08807588 -0.092079334 -0.07606554 -0.03803277
-0.070060365 0.096082784 0.03002587 -0.02201897 0.016013797 -0.008006899 -0.012010348 -0.06805864
-0.12410693 -0.09007761 -0.028024144 -0.06005174 0.026022421 -0.12410693 -0.08607416 -0.018015523
-0.008006899 -0.008006899 -0.078067265 0.058050014 0.014012072 -0.048041392 -0.11810175 -0.050043117
-0.050043117 0.048041392 0.008006899 0.006005174 -0.14012073 0.066056915 0.06805864 -0.1301121
-0.024020696 -0.100086235 -0.12010348 -0.062053464 -0.096082784 -0.012010348 -0.042036217 -0.03002587
0.08607416 0.042036217 -0.042036217 0.026022421 -0.016013797 -0.014012072 0.0020017247 -0.09808451
-0.010008624 -0.0020017247 -0.03402932 0.010008624 -0.08006899 0.008006899 -0.03002587 -0.010008624
-0.11009486 0.04403794 0.07206209 -0.040034495 -0.11810175 -0.008006899 -0.078067265 -0.16414142
0.0040034493 0.058050014 -0.040034495 -0.008006899 -0.03402932 -0.06805864 -0.020017248 -0.08807588
-0.014012072 -0.1221052 0.0 -0.07606554 0.012010348 -0.0040034493 -0.08607416 -0.016013797
-0.11810175 -0.03402932 0.006005174 -0.008006899 0.02201897 0.046039667 -0.010008624 -0.08807588

tfl.pseudo_qconst3 i1 [64, 1, 1, 64]
00000000: 20a6 1829 b6e3 e6f6 0105 fa20 fb3d a0fb
00000010: d10b 0d81 1929 4019 0317 bd3b dc45 87ba
00000020: e2da f32b fb3f 48da bda7 e014 a747 3a53
00000030: 2617 34f4 3dc1 0e23 39ce 2eb5 21d8 17b6
00000040: 8797 8b3f 481f 8a52 cd18 1c06 6737 fe53
00000050: c6bf b3b3 4b65 3507 4520 a7ce 1e7f 46c7
00000060: bc20 24e6 3d7e 243d 27f0 5bae 3b26 ea08
00000070: 354b 68d4 0c4f eb18 45e2 bf27 bde0 99c8
00000080: 08ea 221d dace e51b 03c8 cde5 1f56 812f
00000090: 0e07 acca 5622 e734 bd50 c422 ff24 5917
000000a0: e671 e036 1ff1 05cd 0f27 5518 f80d 0244
000000b0: 19d7 1331 b8f8 3490 3f06 3851 a758 fbda
000000c0: 15d5 36c2 073e 112a dcce d81f ba3d 5e0b
000000d0: 273f 561c ea12 19df 2d81 2c2e f9b1 dad6
000000e0: 248e 33a0 390f 3428 17d1 abc3 5dc7 dc68
000000f0: 40a6 0c0e 26e1 df39 0b08 5f09 30c7 2c22
32 -90 24 41 -74 -29 -26 -10
1 5 -6 32 -5 61 -96 -5
-47 11 13 -127 25 41 64 25
3 23 -67 59 -36 69 -121 -70
-30 -38 -13 43 -5 63 72 -38
-67 -89 -32 20 -89 71 58 83
38 23 52 -12 61 -63 14 35
57 -50 46 -75 33 -40 23 -74
-121 -105 -117 63 72 31 -118 82
-51 24 28 6 103 55 -2 83
-58 -65 -77 -77 75 101 53 7
69 32 -89 -50 30 127 70 -57
-68 32 36 -26 61 126 36 61
39 -16 91 -82 59 38 -22 8
53 75 104 -44 12 79 -21 24
69 -30 -65 39 -67 -32 -103 -56
8 -22 34 29 -38 -50 -27 27
3 -56 -51 -27 31 86 -127 47
14 7 -84 -54 86 34 -25 52
-67 80 -60 34 -1 36 89 23
-26 113 -32 54 31 -15 5 -51
15 39 85 24 -8 13 2 68
25 -41 19 49 -72 -8 52 -112
63 6 56 81 -89 88 -5 -38
21 -43 54 -62 7 62 17 42
-36 -50 -40 31 -70 61 94 11
39 63 86 28 -22 18 25 -33
45 -127 44 46 -7 -79 -38 -42
36 -114 51 -96 57 15 52 40
23 -47 -85 -61 93 -57 -36 104
64 -90 12 14 38 -31 -33 57
11 8 95 9 48 -57 44 34

tfl.pseudo_qconst5 i1 [1, 23, 1, 64]
00000000: bdb1 7fc0 f1ea 2431 ee57 8181 7010 2472
00000010: f73e 4b3d 44a1 d6a3 f203 82f9 0318 7fca
00000020: 540f 81a8 0c02 1cf4 cebf 07dd 7c81 1e14
00000030: 08bb 097f 4af2 8158 de01 9802 183f 4ea7
00000040: bad4 59ce 1fd6 f830 b8e1 dfa2 48b6 217f
00000050: 1436 6625 78ae 37ac d31a 934d e11a 67f1
00000060: 46c6 a4d4 5111 1781 d929 0398 3ecf 2c27
00000070: 35ab a23d 7f63 b4b6 b91c ae12 7f22 34b8
00000080: e914 f3bf b014 f412 c7dd c305 14e6 3556
00000090: cb2f 41fa 7fe1 f8a4 bffa c948 dc13 48c8
000000a0: 46ca f4fe 3806 eaa0 d21e 0481 140c b72a
000000b0: 05bf c5f6 587f f525 de32 ec30 7832 2b42
000000c0: 2be2 019f fe35 e8f9 5c61 a213 2fd5 6718
000000d0: f334 e7fe 1247 7fc6 e0b6 bef1 c921 1413
000000e0: 1ebc c34f f5f0 31ed f53f 02c5 e7fb d619
000000f0: 449f 91e0 126d 56fb 0ff1 d513 f8d9 5358
-67 -79 127 -64 -15 -22 36 49
-18 87 -127 -127 112 16 36 114
-9 62 75 61 68 -95 -42 -93
-14 3 -126 -7 3 24 127 -54
84 15 -127 -88 12 2 28 -12
-50 -65 7 -35 124 -127 30 20
8 -69 9 127 74 -14 -127 88
-34 1 -104 2 24 63 78 -89
-70 -44 89 -50 31 -42 -8 48
-72 -31 -33 -94 72 -74 33 127
20 54 102 37 120 -82 55 -84
-45 26 -109 77 -31 26 103 -15
70 -58 -92 -44 81 17 23 -127
-39 41 3 -104 62 -49 44 39
53 -85 -94 61 127 99 -76 -74
-71 28 -82 18 127 34 52 -72
-23 20 -13 -65 -80 20 -12 18
-57 -35 -61 5 20 -26 53 86
-53 47 65 -6 127 -31 -8 -92
-65 -6 -55 72 -36 19 72 -56
70 -54 -12 -2 56 6 -22 -96
-46 30 4 -127 20 12 -73 42
5 -65 -59 -10 88 127 -11 37
-34 50 -20 48 120 50 43 66
43 -30 1 -97 -2 53 -24 -7
92 97 -94 19 47 -43 103 24
-13 52 -25 -2 18 71 127 -58
-32 -74 -66 -15 -55 33 20 19
30 -68 -61 79 -11 -16 49 -19
-11 63 2 -59 -25 -5 -42 25
68 -97 -111 -32 18 109 86 -5
15 -15 -43 19 -8 -39 83 88

tfl.pseudo_qconst7 i1 [64, 1, 1, 64]
00000000: dbcd c305 8575 d4fd e410 5c35 f70d a6cf
00000010: 42e0 8611 5aee cbe5 991d 2ed9 1773 ca6f
00000020: 07ec f57f 1de4 0349 4544 11f9 dcc2 f2f0
00000030: 1101 1b28 64a0 c624 e031 6729 f492 9428
00000040: b5ab 3b4a 21c1 fe40 e550 21db b71d 65f4
00000050: 58fd e618 e4f7 b031 272c 623f b27f 2438
00000060: d622 2e52 2e50 2eb6 be8b 35d0 bf35 01f6
00000070: ffd3 9da2 c1b2 0933 fb0b dac4 fa3c 0fcc
00000080: 174a 2dc9 261c 29d3 1b1d 99e8 bee2 b411
00000090: c8bf 2d18 1a3d cd27 d09e fada 3ff2 4bdb
000000a0: da68 d0bb 2de3 1d07 dbc3 3bca f72d 38ec
000000b0: c547 0026 e692 fdd7 ef2d 7ff1 4346 9926
000000c0: 54c9 c82b e289 b4f6 d2f8 f4a2 df5f bdbf
000000d0: 2232 f0c4 2415 17ed b53b 082a 30f6 57bc
000000e0: d921 22e7 0538 37f7 367f e7f5 ae17 bd32
000000f0: 2ce7 f857 dfdd 022c d33b d63b 3c33 271a
-37 -51 -61 5 -123 117 -44 -3
-28 16 92 53 -9 13 -90 -49
66 -32 -122 17 90 -18 -53 -27
-103 29 46 -39 23 115 -54 111
7 -20 -11 127 29 -28 3 73
69 68 17 -7 -36 -62 -14 -16
17 1 27 40 100 -96 -58 36
-32 49 103 41 -12 -110 -108 40
-75 -85 59 74 33 -63 -2 64
-27 80 33 -37 -73 29 101 -12
88 -3 -26 24 -28 -9 -80 49
39 44 98 63 -78 127 36 56
-42 34 46 82 46 80 46 -74
-66 -117 53 -48 -65 53 1 -10
-1 -45 -99 -94 -63 -78 9 51
-5 11 -38 -60 -6 60 15 -52
23 74 45 -55 38 28 41 -45
27 29 -103 -24 -66 -30 -76 17
-56 -65 45 24 26 61 -51 39
-48 -98 -6 -38 63 -14 75 -37
-38 104 -48 -69 45 -29 29 7
-37 -61 59 -54 -9 45 56 -20
-59 71 0 38 -26 -110 -3 -41
-17 45 127 -15 67 70 -103 38
84 -55 -56 43 -30 -119 -76 -10
-46 -8 -12 -94 -33 95 -67 -65
34 50 -16 -60 36 21 23 -19
-75 59 8 42 48 -10 87 -68
-39 33 34 -25 5 56 55 -9
54 127 -25 -11 -82 23 -67 50
44 -25 -8 87 -33 -35 2 44
-45 59 -42 59 60 51 39 26

tfl.pseudo_qconst9 i1 [1, 15, 1, 32]
00000000: d505 ddfa e959 204f 7ffc c498 1e16 a47f
00000010: 44a6 e2b5 bf7f 6261 ad98 81a4 53db c8e6
00000020: 4f85 a249 337f 14cb 46db 25e1 3301 81ce
00000030: 47f3 81bc d879 6d2c f100 d9e1 0ff4 68bf
00000040: 4697 875c 231b f62f 48d1 274b fba9 94f0
00000050: 47a2 d61a f46c 0a29 5c02 d306 d2c3 5203
00000060: 290b 8160 f73d 4cba 4e9b cb18 b081 0b02
00000070: d9f1 0d2a e2fa c43b 7fcb fbc5 eadf 281a
00000080: 3fd3 a332 f83e b25f 0f14 b661 0ed8 3873
00000090: fa4a 2de9 d7c6 c6f2 0acd d696 0c36 b0e7
000000a0: 53ad 1158 81fd d45e f3d7 edff 0849 e611
000000b0: 3300 30b6 aaeb 26c4 46f0 258b 2eea 21d4
000000c0: 3ead 1a7f 03ba d9d8 3e52 d616 7b3f 32d0
000000d0: e635 6baf dbb1 ab28 fdaf e453 81d0 c7fb
000000e0: 1b81 5a20 cd31 6beb 3602 3a78 352a 03f4
000000f0: 3ffd 25dd 13f6 f5a3 b70a 04e9 26ff 441a
-43 5 -35 -6 -23 89 32 79
127 -4 -60 -104 30 22 -92 127
68 -90 -30 -75 -65 127 98 97
-83 -104 -127 -92 83 -37 -56 -26
79 -123 -94 73 51 127 20 -53
70 -37 37 -31 51 1 -127 -50
71 -13 -127 -68 -40 121 109 44
-15 0 -39 -31 15 -12 104 -65
70 -105 -121 92 35 27 -10 47
72 -47 39 75 -5 -87 -108 -16
71 -94 -42 26 -12 108 10 41
92 2 -45 6 -46 -61 82 3
41 11 -127 96 -9 61 76 -70
78 -101 -53 24 -80 -127 11 2
-39 -15 13 42 -30 -6 -60 59
127 -53 -5 -59 -22 -33 40 26
63 -45 -93 50 -8 62 -78 95
15 20 -74 97 14 -40 56 115
-6 74 45 -23 -41 -58 -58 -14
10 -51 -42 -106 12 54 -80 -25
83 -83 17 88 -127 -3 -44 94
-13 -41 -19 -1 8 73 -26 17
51 0 48 -74 -86 -21 38 -60
70 -16 37 -117 46 -22 33 -44
62 -83 26 127 3 -70 -39 -40
62 82 -42 22 123 63 50 -48
-26 53 107 -81 -37 -79 -85 40
-3 -81 -28 83 -127 -48 -57 -5
27 -127 90 32 -51 49 107 -21
54 2 58 120 53 42 3 -12
63 -3 37 -35 19 -10 -11 -93
-73 10 4 -23 38 -1 68 26

tfl.pseudo_qconst11 i1 [1, 9, 1, 32]
00000000: 63b2 dcb9 d52c 4cff e78a 8126 2e7f 00ce
00000010: 15ea c03f 2232 ebb5 81e1 ee81 e29a 381d
00000020: 56b6 8fae 122f 403d 0581 0341 56f7 e716
00000030: 7f7f 7d20 cd3c dcd6 a8fa ff40 e4cd 321a
00000040: 501f 990e f62f cf7e bbc5 d812 2aba e781
00000050: 069b 15d6 61f0 42c5 500b 0c0e 3fe8 98ec
00000060: ab40 1e0a 1a38 f960 333b f8fd 7ab1 2acc
00000070: 5abb f0e6 58d4 a3e7 e2fb 4e12 e108 1908
00000080: 877f e781 0b5d 3e37 c85b a91f 7f03 c354
00000090: d0db 81d2 72fb 8181 69ea d063 fcff 7f35
000000a0: b967 309d 1c4a 087f 99d5 8b7f 5b1a 9243
000000b0: e359 f695 162b 94d8 0517 b80e 81b2 4e22
000000c0: b232 2ef6 0765 180b bec7 841c 64ed 0f1a
000000d0: d448 1081 1c31 f3cd ce55 f9af ef81 3d2b
000000e0: 5625 a715 5d04 8147 8175 a3e0 b1eb 8199
000000f0: b0ce cbae 6145 c304 4560 815b a671 db62
99 -78 -36 -71 -43 44 76 -1
-25 -118 -127 38 46 127 0 -50
21 -22 -64 63 34 50 -21 -75
-127 -31 -18 -127 -30 -102 56 29
86 -74 -113 -82 18 47 64 61
5 -127 3 65 86 -9 -25 22
127 127 125 32 -51 60 -36 -42
-88 -6 -1 64 -28 -51 50 26
80 31 -103 14 -10 47 -49 126
-69 -59 -40 18 42 -70 -25 -127
6 -101 21 -42 97 -16 66 -59
80 11 12 14 63 -24 -104 -20
-85 64 30 10 26 56 -7 96
51 59 -8 -3 122 -79 42 -52
90 -69 -16 -26 88 -44 -93 -25
-30 -5 78 18 -31 8 25 8
-121 127 -25 -127 11 93 62 55
-56 91 -87 31 127 3 -61 84
-48 -37 -127 -46 114 -5 -127 -127
105 -22 -48 99 -4 -1 127 53
-71 103 48 -99 28 74 8 127
-103 -43 -117 127 91 26 -110 67
-29 89 -10 -107 22 43 -108 -40
5 23 -72 14 -127 -78 78 34
-78 50 46 -10 7 101 24 11
-66 -57 -124 28 100 -19 15 26
-44 72 16 -127 28 49 -13 -51
-50 85 -7 -81 -17 -127 61 43
86 37 -89 21 93 4 -127 71
-127 117 -93 -32 -79 -21 -127 -103
-80 -50 -53 -82 97 69 -61 4
69 96 -127 91 -90 113 -37 98

tfl.pseudo_qconst13 i1 [64, 1, 1, 64]
00000000: 323e c70b 0756 2613 b5fa c3f1 a244 d04b
00000010: f3d2 51b2 c2c7 fa07 13a5 34d3 0e4b 2002
00000020: 023f facb 2952 44c8 b00e 1be5 aaef eed1
00000030: d1dd f418 39d3 11c4 81ed f250 0737 ff1d
00000040: 5c30 f819 c4cd c214 1527 14dd feea db7f
00000050: 5113 052e 01e9 c59d 3df3 2af4 dfce cd06
00000060: 281a ba10 0eef 14d0 d4de 41d2 f8da c400
00000070: 0110 f2c0 f7e6 d4eb fa13 2c04 c2cd 1347
00000080: 1eee 0101 3510 bbd6 ab93 0cc8 4802 52e0
00000090: f9fc d7dc e9f6 f5f6 42ca 06f8 cdc8 0adf
000000a0: 84e5 cca0 b53f fdca dae3 f0c7 a0ed 6781
000000b0: fbf2 e125 07fd 6224 edc0 d726 2cf0 ef25
000000c0: 2c10 273a fb14 4d07 49e6 1415 7f73 b6f2
000000d0: c5e6 f2a5 a3c3 9f47 f75c 3826 42db 5a3c
000000e0: 1f4a 29df fd28 4508 e0f1 e0a4 fa4b d7f9
000000f0: 36f0 3d15 187e d3a1 cd9f 8ff4 c2e3 e000
50 62 -57 11 7 86 38 19
-75 -6 -61 -15 -94 68 -48 75
-13 -46 81 -78 -62 -57 -6 7
19 -91 52 -45 14 75 32 2
2 63 -6 -53 41 82 68 -56
-80 14 27 -27 -86 -17 -18 -47
-47 -35 -12 24 57 -45 17 -60
-127 -19 -14 80 7 55 -1 29
92 48 -8 25 -60 -51 -62 20
21 39 20 -35 -2 -22 -37 127
81 19 5 46 1 -23 -59 -99
61 -13 42 -12 -33 -50 -51 6
40 26 -70 16 14 -17 20 -48
-44 -34 65 -46 -8 -38 -60 0
1 16 -14 -64 -9 -26 -44 -21
-6 19 44 4 -62 -51 19 71
30 -18 1 1 53 16 -69 -42
-85 -109 12 -56 72 2 82 -32
-7 -4 -41 -36 -23 -10 -11 -10
66 -54 6 -8 -51 -56 10 -33
-124 -27 -52 -96 -75 63 -3 -54
-38 -29 -16 -57 -96 -19 103 -127
-5 -14 -31 37 7 -3 98 36
-19 -64 -41 38 44 -16 -17 37
44 16 39 58 -5 20 77 7
73 -26 20 21 127 115 -74 -14
-59 -26 -14 -91 -93 -61 -97 71
-9 92 56 38 66 -37 90 60
31 74 41 -33 -3 40 69 8
-32 -15 -32 -92 -6 75 -41 -7
54 -16 61 21 24 126 -45 -95
-51 -97 -113 -12 -62 -29 -32 0

tfl.pseudo_qconst15 i1 [1, 11, 1, 32]
00000000: 4e32 17bb 3049 cc2e b19a a63c 1bd0 01c5
00000010: 7fbb 633b f981 e3ab 8af4 6fd2 d8ea bad8
00000020: 5203 e59b 497f adff c4ed 1f9a 7f81 2dcd
00000030: 6e1c 4a1a d09f e2dc 0133 e334 c2c6 885a
00000040: 3555 f915 3ace d0e9 fd39 6ef0 7a1e fe82
00000050: 69ef b40a a3d2 001f beef 2d7f 8913 e061
00000060: 0421 e3c7 819d e637 2366 7f81 4807 43a2
00000070: 5dea d3e5 d14c ee16 1d4c 1f38 f669 7f7f
00000080: 14ce 3281 19c2 7f9b 6dfb d8c6 0c23 31dd
00000090: 2916 6f29 7f46 410a ed46 bc36 39ea 51d9
000000a0: 2ad2 9e8f e3a8 5c58 27ff e163 3cdb 193a
000000b0: c8da fb7f 1c28 4d2e 7fec adec 2325 c079
000000c0: 812f a62d 0e03 3037 e83b fa3e f4dc 5b45
000000d0: b47f d059 e8db 053c 4d28 f1c5 6dd3 ee06
000000e0: 87e8 fa2e c144 2a37 bd4b df45 c581 0321
000000f0: 0045 2a17 e295 ddcf 842b 0cc5 ccb5 209a
78 50 23 -69 48 73 -52 46
-79 -102 -90 60 27 -48 1 -59
127 -69 99 59 -7 -127 -29 -85
-118 -12 111 -46 -40 -22 -70 -40
82 3 -27 -101 73 127 -83 -1
-60 -19 31 -102 127 -127 45 -51
110 28 74 26 -48 -97 -30 -36
1 51 -29 52 -62 -58 -120 90
53 85 -7 21 58 -50 -48 -23
-3 57 110 -16 122 30 -2 -126
105 -17 -76 10 -93 -46 0 31
-66 -17 45 127 -119 19 -32 97
4 33 -29 -57 -127 -99 -26 55
35 102 127 -127 72 7 67 -94
93 -22 -45 -27 -47 76 -18 22
29 76 31 56 -10 105 127 127
20 -50 50 -127 25 -62 127 -101
109 -5 -40 -58 12 35 49 -35
41 22 111 41 127 70 65 10
-19 70 -68 54 57 -22 81 -39
42 -46 -98 -113 -29 -88 92 88
39 -1 -31 99 60 -37 25 58
-56 -38 -5 127 28 40 77 46
127 -20 -83 -20 35 37 -64 121
-127 47 -90 45 14 3 48 55
-24 59 -6 62 -12 -36 91 69
-76 127 -48 89 -24 -37 5 60
77 40 -15 -59 109 -45 -18 6
-121 -24 -6 46 -63 68 42 55
-67 75 -33 69 -59 -127 3 33
0 69 42 23 -30 -107 -35 -49
-124 43 12 -59 -52 -75 32 -102

tfl.pseudo_qconst17 i1 [1, 7, 1, 32]
00000000: 4fa9 814b c05a 818f dcdb ad8a f506 025b
00000010: 9214 06ec 7fb5 0fa9 0a57 a471 3afe 323a
00000020: b27f fc0e 81e2 f152 8112 8158 8cf2 5ed4
00000030: 9ec7 ba6c 5317 6a18 817f 8fba b76a 7f64
00000040: f0fa ff1c b7c9 c2f0 84ea 47ad 0d15 7f81
00000050: 22f9 3b25 d942 499b cfc9 fdc2 f5fc 55d4
00000060: 91a9 bc7f 1cd2 077f d1fb ebef af43 418a
00000070: f865 28d2 adfd 430f bc0b 9025 403c 3d7f
00000080: ef2c 9657 db37 5d49 341a 6e23 4348 2721
00000090: cc5e b503 e4f7 7f7f 5b08 819e 527f 1521
000000a0: 9dff 8411 a5c7 71d5 e7e2 1c81 9c7f 1d64
000000b0: 0a25 16fc 7b2f 0f25 742f 667f 7faf d14d
000000c0: 7ff0 6865 2781 4a4c 517f 5cdc 8168 e64e
000000d0: 8181 7f7f de7f 2a76 1db2 73c3 02f7 a90a
79 -87 -127 75 -64 90 -127 -113
-36 -37 -83 -118 -11 6 2 91
-110 20 6 -20 127 -75 15 -87
10 87 -92 113 58 -2 50 58
-78 127 -4 14 -127 -30 -15 82
-127 18 -127 88 -116 -14 94 -44
-98 -57 -70 108 83 23 106 24
-127 127 -113 -70 -73 106 127 100
-16 -6 -1 28 -73 -55 -62 -16
-124 -22 71 -83 13 21 127 -127
34 -7 59 37 -39 66 73 -101
-49 -55 -3 -62 -11 -4 85 -44
-111 -87 -68 127 28 -46 7 127
-47 -5 -21 -17 -81 67 65 -118
-8 101 40 -46 -83 -3 67 15
-68 11 -112 37 64 60 61 127
-17 44 -106 87 -37 55 93 73
52 26 110 35 67 72 39 33
-52 94 -75 3 -28 -9 127 127
91 8 -127 -98 82 127 21 33
-99 -1 -124 17 -91 -57 113 -43
-25 -30 28 -127 -100 127 29 100
10 37 22 -4 123 47 15 37
116 47 102 127 127 -81 -47 77
127 -16 104 101 39 -127 74 76
81 127 92 -36 -127 104 -26 78
-127 -127 127 127 -34 127 42 118
29 -78 115 -61 2 -9 -87 10

tfl.pseudo_qconst19 i1 [64, 1, 1, 32]
00000000: 7fc8 6de1 bafe 3aff 3f0c dcc9 cc25 e00b
00000010: c2f5 7119 0135 a25e c756 18ec 4aec d7e2
00000020: 6223 343b 3eda aa48 efda 3d2b 2cc3 d0c6
00000030: 0fda d706 249e 7f20 e30b 252d b317 168c
00000040: cbd0 8f68 fbf4 00f0 811a 1afa 0d86 ae1b
00000050: eee9 affc 45f9 963f b7fb 0524 f0e9 1f51
00000060: de32 defa 2e7f acc2 dd4e 193b 4e0f 2316
00000070: cfe4 129f 08c5 e431 3508 2bb2 0fe2 f6ea
00000080: bace fa98 cf37 8175 2947 ebd2 c30e 0424
00000090: d40a f50d e6ed 0b1a cce8 e3bf e820 993f
000000a0: 100b e61c fb13 1ed4 ee11 0419 b9f2 dc3c
000000b0: fe49 7ff6 c51a 0de4 edc5 d43a f6ec 45e6
000000c0: 5776 958b 66fe a75c 079a 0ff9 76a6 bb08
000000d0: 3bcd 3ecb c3d5 be4d 6cf7 5ab0 9e3f 097f
000000e0: 74d6 f923 a763 4a13 30e0 d4e1 e2c0 d1f5
000000f0: a3ff 46be 3726 d466 20ed f2a8 8634 3181
127 -56 109 -31 -70 -2 58 -1
63 12 -36 -55 -52 37 -32 11
-62 -11 113 25 1 53 -94 94
-57 86 24 -20 74 -20 -41 -30
98 35 52 59 62 -38 -86 72
-17 -38 61 43 44 -61 -48 -58
15 -38 -41 6 36 -98 127 32
-29 11 37 45 -77 23 22 -116
-53 -48 -113 104 -5 -12 0 -16
-127 26 26 -6 13 -122 -82 27
-18 -23 -81 -4 69 -7 -106 63
-73 -5 5 36 -16 -23 31 81
-34 50 -34 -6 46 127 -84 -62
-35 78 25 59 78 15 35 22
-49 -28 18 -97 8 -59 -28 49
53 8 43 -78 15 -30 -10 -22
-70 -50 -6 -104 -49 55 -127 117
41 71 -21 -46 -61 14 4 36
-44 10 -11 13 -26 -19 11 26
-52 -24 -29 -65 -24 32 -103 63
16 11 -26 28 -5 19 30 -44
-18 17 4 25 -71 -14 -36 60
-2 73 127 -10 -59 26 13 -28
-19 -59 -44 58 -10 -20 69 -26
87 118 -107 -117 102 -2 -89 92
7 -102 15 -7 118 -90 -69 8
59 -51 62 -53 -61 -43 -66 77
108 -9 90 -80 -98 63 9 127
116 -42 -7 35 -89 99 74 19
48 -32 -44 -31 -30 -64 -47 -11
-93 -1 70 -66 55 38 -44 102
32 -19 -14 -88 -122 52 49 -127

tfl.pseudo_qconst21 i1 [1, 5, 1, 32]
00000000: 7613 7f00 ba81 3027 1281 f1ce 7fd9 daf0
00000010: 4604 22b3 7fbf 05f3 aad3 0cf8 69b8 6f08
00000020: 022c 66d3 fd39 ef7f be1e 457e 73f2 8dae
00000030: 6181 7f7f 58b6 00d1 8181 4ea1 3a22 5e86
00000040: 8167 a2a6 b7aa 7f74 2c09 df94 1c8c 2882
00000050: 7fd3 f544 dc28 7fd9 3485 dde0 818b b5ef
00000060: a9d7 ef81 ee99 5b3a 7a3b 817f 2981 f081
00000070: 6a72 cb19 bfce 93a2 69e3 1518 2d81 9958
00000080: 1081 09af 7fac 9008 7fc7 407f 08f4 8155
00000090: 6b78 ae6d 8d81 aa81 7e11 7f7f 5b11 817f
118 19 127 0 -70 -127 48 39
18 -127 -15 -50 127 -39 -38 -16
70 4 34 -77 127 -65 5 -13
-86 -45 12 -8 105 -72 111 8
2 44 102 -45 -3 57 -17 127
-66 30 69 126 115 -14 -115 -82
97 -127 127 127 88 -74 0 -47
-127 -127 78 -95 58 34 94 -122
-127 103 -94 -90 -73 -86 127 116
44 9 -33 -108 28 -116 40 -126
127 -45 -11 68 -36 40 127 -39
52 -123 -35 -32 -127 -117 -75 -17
-87 -41 -17 -127 -18 -103 91 58
122 59 -127 127 41 -127 -16 -127
106 114 -53 25 -65 -50 -109 -94
105 -29 21 24 45 -127 -103 88
16 -127 9 -81 127 -84 -112 8
127 -57 64 127 8 -12 -127 85
107 120 -82 109 -115 -127 -86 -127
126 17 127 127 91 17 -127 127

tfl.pseudo_qconst23 i1 [32, 5, 1, 40]
00000000: d2e2 e5df 24e8 dbf8 efc7 e6b6 1d08 e7c9
00000010: 1cc4 ffd2 2006 1fd8 04fe ce1b cc15 0b1b
00000020: fff5 f21d 201c bdf4 231e 0a15 daeb 1f23
00000030: c10d e80d 18fa b6c5 edf3 342a 1026 34e9
00000040: 0f25 d4f1 0fe6 3e1a 0d19 fe10 fcca f70f
00000050: 23fd 2232 fc1d 1c1d f8db 063a f301 ebef
00000060: dbf7 4917 fd30 f42b 0fea 2bd9 20f4 49e7
00000070: 0126 d81e c3eb a70f 7005 2644 0b40 dfea
00000080: 2bf4 07ff 1854 0530 f37f 5b4f d9e9 4df1
00000090: 4050 c506 f93f 45eb 0a2e b8e5 d2c8 a3d7
000000a0: 3b11 0b01 3023 eee8 100c eaf7 1831 f93f
000000b0: 2271 2350 f2d6 2f21 552e 0702 353f 0b09
000000c0: 03ef fd15 00de 9b04 f506 2d17 f8f3 0bb5
000000d0: 12cc ff98 dddb c5dc f315 18eb 3c37 3519
000000e0: 1609 0524 f8ca 1407 0004 c4ce bb25 d9dc
000000f0: 4d23 5e31 33f0 d1a7 f4ef dedc 0003 f9d5
-46 -30 -27 -33 36 -24 -37 -8
-17 -57 -26 -74 29 8 -25 -55
28 -60 -1 -46 32 6 31 -40
4 -2 -50 27 -52 21 11 27
-1 -11 -14 29 32 28 -67 -12
35 30 10 21 -38 -21 31 35
-63 13 -24 13 24 -6 -74 -59
-19 -13 52 42 16 38 52 -23
15 37 -44 -15 15 -26 62 26
13 25 -2 16 -4 -54 -9 15
35 -3 34 50 -4 29 28 29
-8 -37 6 58 -13 1 -21 -17
-37 -9 73 23 -3 48 -12 43
15 -22 43 -39 32 -12 73 -25
1 38 -40 30 -61 -21 -89 15
112 5 38 68 11 64 -33 -22
43 -12 7 -1 24 84 5 48
-13 127 91 79 -39 -23 77 -15
64 80 -59 6 -7 63 69 -21
10 46 -72 -27 -46 -56 -93 -41
59 17 11 1 48 35 -18 -24
16 12 -22 -9 24 49 -7 63
34 113 35 80 -14 -42 47 33
85 46 7 2 53 63 11 9
3 -17 -3 21 0 -34 -101 4
-11 6 45 23 -8 -13 11 -75
18 -52 -1 -104 -35 -37 -59 -36
-13 21 24 -21 60 55 53 25
22 9 5 36 -8 -54 20 7
0 4 -60 -50 -69 37 -39 -36
77 35 94 49 51 -16 -47 -89
-12 -17 -34 -36 0 3 -7 -43

tfl.pseudo_qconst24 i1 [1, 22, 1, 64] scale=0.031304248 zero_point=-128
00000000: 8080 8080 8080 8080 8080 8080 8080 8080
00000010: 8080 8080 8080 8080 8080 8080 8080 8080
00000020: 8080 8080 8080 8080 8080 8080 8080 8080
00000030: 8080 8080 8080 8080 8080 8080 8080 8080
00000040: 8080 8080 8080 8080 8080 8080 8080 8080
00000050: 8080 8080 8080 8080 8080 8080 8080 8080
00000060: 8080 8080 8080 8080 8080 8080 8080 8080
00000070: 8080 8080 8080 8080 8080 8080 8080 8080
00000080: 8080 8080 8080 8080 8080 8080 8080 8080
00000090: 8080 8080 8080 8080 8080 8080 8080 8080
000000a0: 8080 8080 8080 8080 8080 8080 8080 8080
000000b0: 8080 8080 8080 8080 8080 8080 8080 8080
000000c0: 8080 8080 8080 8080 8080 8080 8080 8080
000000d0: 8080 8080 8080 8080 8080 8080 8080 8080
000000e0: 8080 8080 8080 8080 8080 8080 8080 8080
000000f0: 8080 8080 8080 8080 8080 8080 8080 8080
0.0 0.0 0.0 0.0 0.0 0.0 0.0 0.0
0.0 0.0 0.0 0.0 0.0 0.0 0.0 0.0
0.0 0.0 0.0 0.0 0.0 0.0 0.0 0.0
0.0 0.0 0.0 0.0 0.0 0.0 0.0 0.0
0.0 0.0 0.0 0.0 0.0 0.0 0.0 0.0
0.0 0.0 0.0 0.0 0.0 0.0 0.0 0.0
0.0 0.0 0.0 0.0 0.0 0.0 0.0 0.0
0.0 0.0 0.0 0.0 0.0 0.0 0.0 0.0
0.0 0.0 0.0 0.0 0.0 0.0 0.0 0.0
0.0 0.0 0.0 0.0 0.0 0.0 0.0 0.0
0.0 0.0 0.0 0.0 0.0 0.0 0.0 0.0
0.0 0.0 0.0 0.0 0.0 0.0 0.0 0.0
0.0 0.0 0.0 0.0 0.0 0.0 0.0 0.0
0.0 0.0 0.0 0.0 0.0 0.0 0.0 0.0
0.0 0.0 0.0 0.0 0.0 0.0 0.0 0.0
0.0 0.0 0.0 0.0 0.0 0.0 0.0 0.0
0.0 0.0 0.0 0.0 0.0 0.0 0.0 0.0
0.0 0.0 0.0 0.0 0.0 0.0 0.0 0.0
0.0 0.0 0.0 0.0 0.0 0.0 0.0 0.0
0.0 0.0 0.0 0.0 0.0 0.0 0.0 0.0
0.0 0.0 0.0 0.0 0.0 0.0 0.0 0.0
0.0 0.0 0.0 0.0 0.0 0.0 0.0 0.0
0.0 0.0 0.0 0.0 0.0 0.0 0.0 0.0
0.0 0.0 0.0 0.0 0.0 0.0 0.0 0.0
0.0 0.0 0.0 0.0 0.0 0.0 0.0 0.0
0.0 0.0 0.0 0.0 0.0 0.0 0.0 0.0
0.0 0.0 0.0 0.0 0.0 0.0 0.0 0.0
0.0 0.0 0.0 0.0 0.0 0.0 0.0 0.0
0.0 0.0 0.0 0.0 0.0 0.0 0.0 0.0
0.0 0.0 0.0 0.0 0.0 0.0 0.0 0.0
0.0 0.0 0.0 0.0 0.0 0.0 0.0 0.0
0.0 0.0 0.0 0.0 0.0 0.0 0.0 0.0

tfl.pseudo_qconst25 i1 [1, 16, 1, 64] scale=0.029307146 zero_point=-128
00000000: 8080 8080 8080 8080 8080 8080 8080 8080
00000010: 8080 8080 8080 8080 8080 8080 8080 8080
00000020: 8080 8080 8080 8080 8080 8080 8080 8080
00000030: 8080 8080 8080 8080 8080 8080 8080 8080
00000040: 8080 8080 8080 8080 8080 8080 8080 8080
00000050: 8080 8080 8080 8080 8080 8080 8080 8080
00000060: 8080 8080 8080 8080 8080 8080 8080 8080
00000070: 8080 8080 8080 8080 8080 8080 8080 8080
00000080: 8080 8080 8080 8080 8080 8080 8080 8080
00000090: 8080 8080 8080 8080 8080 8080 8080 8080
000000a0: 8080 8080 8080 8080 8080 8080 8080 8080
000000b0: 8080 8080 8080 8080 8080 8080 8080 8080
000000c0: 8080 8080 8080 8080 8080 8080 8080 8080
000000d0: 8080 8080 8080 8080 8080 8080 8080 8080
000000e0: 8080 8080 8080 8080 8080 8080 8080 8080
000000f0: 8080 8080 8080 8080 8080 8080 8080 8080
0.0 0.0 0.0 0.0 0.0 0.0 0.0 0.0
0.0 0.0 0.0 0.0 0.0 0.0 0.0 0.0
0.0 0.0 0.0 0.0 0.0 0.0 0.0 0.0
0.0 0.0 0.0 0.0 0.0 0.0 0.0 0.0
0.0 0.0 0.0 0.0 0.0 0.0 0.0 0.0
0.0 0.0 0.0 0.0 0.0 0.0 0.0 0.0
0.0 0.0 0.0 0.0 0.0 0.0 0.0 0.0
0.0 0.0 0.0 0.0 0.0 0.0 0.0 0.0
0.0 0.0 0.0 0.0 0.0 0.0 0.0 0.0
0.0 0.0 0.0 0.0 0.0 0.0 0.0 0.0
0.0 0.0 0.0 0.0 0.0 0.0 0.0 0.0
0.0 0.0 0.0 0.0 0.0 0.0 0.0 0.0
0.0 0.0 0.0 0.0 0.0 0.0 0.0 0.0
0.0 0.0 0.0 0.0 0.0 0.0 0.0 0.0
0.0 0.0 0.0 0.0 0.0 0.0 0.0 0.0
0.0 0.0 0.0 0.0 0.0 0.0 0.0 0.0
0.0 0.0 0.0 0.0 0.0 0.0 0.0 0.0
0.0 0.0 0.0 0.0 0.0 0.0 0.0 0.0
0.0 0.0 0.0 0.0 0.0 0.0 0.0 0.0
0.0 0.0 0.0 0.0 0.0 0.0 0.0 0.0
0.0 0.0 0.0 0.0 0.0 0.0 0.0 0.0
0.0 0.0 0.0 0.0 0.0 0.0 0.0 0.0
0.0 0.0 0.0 0.0 0.0 0.0 0.0 0.0
0.0 0.0 0.0 0.0 0.0 0.0 0.0 0.0
0.0 0.0 0.0 0.0 0.0 0.0 0.0 0.0
0.0 0.0 0.0 0.0 0.0 0.0 0.0 0.0
0.0 0.0 0.0 0.0 0.0 0.0 0.0 0.0
0.0 0.0 0.0 0.0 0.0 0.0 0.0 0.0
0.0 0.0 0.0 0.0 0.0 0.0 0.0 0.0
0.0 0.0 0.0 0.0 0.0 0.0 0.0 0.0
0.0 0.0 0.0 0.0 0.0 0.0 0.0 0.0
0.0 0.0 0.0 0.0 0.0 0.0 0.0 0.0

tfl.pseudo_qconst26 i1 [1, 2, 1, 40] scale=0.101960786 zero_point=-128
00000000: 8080 8080 8080 8080 8080 8080 8080 8080
00000010: 8080 8080 8080 8080 8080 8080 8080 8080
00000020: 8080 8080 8080 8080 8080 8080 8080 8080
00000030: 8080 8080 8080 8080 8080 8080 8080 8080
00000040: 8080 8080 8080 8080 8080 8080 8080 8080
0.0 0.0 0.0 0.0 0.0 0.0 0.0 0.0
0.0 0.0 0.0 0.0 0.0 0.0 0.0 0.0
0.0 0.0 0.0 0.0 0.0 0.0 0.0 0.0
0.0 0.0 0.0 0.0 0.0 0.0 0.0 0.0
0.0 0.0 0.0 0.0 0.0 0.0 0.0 0.0
0.0 0.0 0.0 0.0 0.0 0.0 0.0 0.0
0.0 0.0 0.0 0.0 0.0 0.0 0.0 0.0
0.0 0.0 0.0 0.0 0.0 0.0 0.0 0.0
0.0 0.0 0.0 0.0 0.0 0.0 0.0 0.0
0.0 0.0 0.0 0.0 0.0 0.0 0.0 0.0

tfl.pseudo_qconst27 i1 [1, 4, 1, 32] scale=0.6385316 zero_point=-128
00000000: 8080 8080 8080 8080 8080 8080 8080 8080
00000010: 8080 8080 8080 8080 8080 8080 8080 8080
00000020: 8080 8080 8080 8080 8080 8080 8080 8080
00000030: 8080 8080 8080 8080 8080 8080 8080 8080
00000040: 8080 8080 8080 8080 8080 8080 8080 8080
00000050: 8080 8080 8080 8080 8080 8080 8080 8080
00000060: 8080 8080 8080 8080 8080 8080 8080 8080
00000070: 8080 8080 8080 8080 8080 8080 8080 8080
0.0 0.0 0.0 0.0 0.0 0.0 0.0 0.0
0.0 0.0 0.0 0.0 0.0 0.0 0.0 0.0
0.0 0.0 0.0 0.0 0.0 0.0 0.0 0.0
0.0 0.0 0.0 0.0 0.0 0.0 0.0 0.0
0.0 0.0 0.0 0.0 0.0 0.0 0.0 0.0
0.0 0.0 0.0 0.0 0.0 0.0 0.0 0.0
0.0 0.0 0.0 0.0 0.0 0.0 0.0 0.0
0.0 0.0 0.0 0.0 0.0 0.0 0.0 0.0
0.0 0.0 0.0 0.0 0.0 0.0 0.0 0.0
0.0 0.0 0.0 0.0 0.0 0.0 0.0 0.0
0.0 0.0 0.0 0.0 0.0 0.0 0.0 0.0
0.0 0.0 0.0 0.0 0.0 0.0 0.0 0.0
0.0 0.0 0.0 0.0 0.0 0.0 0.0 0.0
0.0 0.0 0.0 0.0 0.0 0.0 0.0 0.0
0.0 0.0 0.0 0.0 0.0 0.0 0.0 0.0
0.0 0.0 0.0 0.0 0.0 0.0 0.0 0.0

tfl.pseudo_qconst28 i1 [1, 10, 1, 64] scale=0.033672854 zero_point=-128
00000000: 8080 8080 8080 8080 8080 8080 8080 8080
00000010: 8080 8080 8080 8080 8080 8080 8080 8080
00000020: 8080 8080 8080 8080 8080 8080 8080 8080
00000030: 8080 8080 8080 8080 8080 8080 8080 8080
00000040: 8080 8080 8080 8080 8080 8080 8080 8080
00000050: 8080 8080 8080 8080 8080 8080 8080 8080
00000060: 8080 8080 8080 8080 8080 8080 8080 8080
00000070: 8080 8080 8080 8080 8080 8080 8080 8080
00000080: 8080 8080 8080 8080 8080 8080 8080 8080
00000090: 8080 8080 8080 8080 8080 8080 8080 8080
000000a0: 8080 8080 8080 8080 8080 8080 8080 8080
000000b0: 8080 8080 8080 8080 8080 8080 8080 8080
000000c0: 8080 8080 8080 8080 8080 8080 8080 8080
000000d0: 8080 8080 8080 8080 8080 8080 8080 8080
000000e0: 8080 8080 8080 8080 8080 8080 8080 8080
000000f0: 8080 8080 8080 8080 8080 8080 8080 8080
0.0 0.0 0.0 0.0 0.0 0.0 0.0 0.0
0.0 0.0 0.0 0.0 0.0 0.0 0.0 0.0
0.0 0.0 0.0 0.0 0.0 0.0 0.0 0.0
0.0 0.0 0.0 0.0 0.0 0.0 0.0 0.0
0.0 0.0 0.0 0.0 0.0 0.0 0.0 0.0
0.0 0.0 0.0 0.0 0.0 0.0 0.0 0.0
0.0 0.0 0.0 0.0 0.0 0.0 0.0 0.0
0.0 0.0 0.0 0.0 0.0 0.0 0.0 0.0
0.0 0.0 0.0 0.0 0.0 0.0 0.0 0.0
0.0 0.0 0.0 0.0 0.0 0.0 0.0 0.0
0.0 0.0 0.0 0.0 0.0 0.0 0.0 0.0
0.0 0.0 0.0 0.0 0.0 0.0 0.0 0.0
0.0 0.0 0.0 0.0 0.0 0.0 0.0 0.0
0.0 0.0 0.0 0.0 0.0 0.0 0.0 0.0
0.0 0.0 0.0 0.0 0.0 0.0 0.0 0.0
0.0 0.0 0.0 0.0 0.0 0.0 0.0 0.0
0.0 0.0 0.0 0.0 0.0 0.0 0.0 0.0
0.0 0.0 0.0 0.0 0.0 0.0 0.0 0.0
0.0 0.0 0.0 0.0 0.0 0.0 0.0 0.0
0.0 0.0 0.0 0.0 0.0 0.0 0.0 0.0
0.0 0.0 0.0 0.0 0.0 0.0 0.0 0.0
0.0 0.0 0.0 0.0 0.0 0.0 0.0 0.0
0.0 0.0 0.0 0.0 0.0 0.0 0.0 0.0
0.0 0.0 0.0 0.0 0.0 0.0 0.0 0.0
0.0 0.0 0.0 0.0 0.0 0.0 0.0 0.0
0.0 0.0 0.0 0.0 0.0 0.0 0.0 0.0
0.0 0.0 0.0 0.0 0.0 0.0 0.0 0.0
0.0 0.0 0.0 0.0 0.0 0.0 0.0 0.0
0.0 0.0 0.0 0.0 0.0 0.0 0.0 0.0
0.0 0.0 0.0 0.0 0.0 0.0 0.0 0.0
0.0 0.0 0.0 0.0 0.0 0.0 0.0 0.0
0.0 0.0 0.0 0.0 0.0 0.0 0.0 0.0

tfl.pseudo_qconst29 i1 [1, 14, 1, 64] scale=0.036682576 zero_point=-128
00000000: 8080 8080 8080 8080 8080 8080 8080 8080
00000010: 8080 8080 8080 8080 8080 8080 8080 8080
00000020: 8080 8080 8080 8080 8080 8080 8080 8080
00000030: 8080 8080 8080 8080 8080 8080 8080 8080
00000040: 8080 8080 8080 8080 8080 8080 8080 8080
00000050: 8080 8080 8080 8080 8080 8080 8080 8080
00000060: 8080 8080 8080 8080 8080 8080 8080 8080
00000070: 8080 8080 8080 8080 8080 8080 8080 8080
00000080: 8080 8080 8080 8080 8080 8080 8080 8080
00000090: 8080 8080 8080 8080 8080 8080 8080 8080
000000a0: 8080 8080 8080 8080 8080 8080 8080 8080
000000b0: 8080 8080 8080 8080 8080 8080 8080 8080
000000c0: 8080 8080 8080 8080 8080 8080 8080 8080
000000d0: 8080 8080 8080 8080 8080 8080 8080 8080
000000e0: 8080 8080 8080 8080 8080 8080 8080 8080
000000f0: 8080 8080 8080 8080 8080 8080 8080 8080
0.0 0.0 0.0 0.0 0.0 0.0 0.0 0.0
0.0 0.0 0.0 0.0 0.0 0.0 0.0 0.0
0.0 0.0 0.0 0.0 0.0 0.0 0.0 0.0
0.0 0.0 0.0 0.0 0.0 0.0 0.0 0.0
0.0 0.0 0.0 0.0 0.0 0.0 0.0 0.0
0.0 0.0 0.0 0.0 0.0 0.0 0.0 0.0
0.0 0.0 0.0 0.0 0.0 0.0 0.0 0.0
0.0 0.0 0.0 0.0 0.0 0.0 0.0 0.0
0.0 0.0 0.0 0.0 0.0 0.0 0.0 0.0
0.0 0.0 0.0 0.0 0.0 0.0 0.0 0.0
0.0 0.0 0.0 0.0 0.0 0.0 0.0 0.0
0.0 0.0 0.0 0.0 0.0 0.0 0.0 0.0
0.0 0.0 0.0 0.0 0.0 0.0 0.0 0.0
0.0 0.0 0.0 0.0 0.0 0.0 0.0 0.0
0.0 0.0 0.0 0.0 0.0 0.0 0.0 0.0
0.0 0.0 0.0 0.0 0.0 0.0 0.0 0.0
0.0 0.0 0.0 0.0 0.0 0.0 0.0 0.0
0.0 0.0 0.0 0.0 0.0 0.0 0.0 0.0
0.0 0.0 0.0 0.0 0.0 0.0 0.0 0.0
0.0 0.0 0.0 0.0 0.0 0.0 0.0 0.0
0.0 0.0 0.0 0.0 0.0 0.0 0.0 0.0
0.0 0.0 0.0 0.0 0.0 0.0 0.0 0.0
0.0 0.0 0.0 0.0 0.0 0.0 0.0 0.0
0.0 0.0 0.0 0.0 0.0 0.0 0.0 0.0
0.0 0.0 0.0 0.0 0.0 0.0 0.0 0.0
0.0 0.0 0.0 0.0 0.0 0.0 0.0 0.0
0.0 0.0 0.0 0.0 0.0 0.0 0.0 0.0
0.0 0.0 0.0 0.0 0.0 0.0 0.0 0.0
0.0 0.0 0.0 0.0 0.0 0.0 0.0 0.0
0.0 0.0 0.0 0.0 0.0 0.0 0.0 0.0
0.0 0.0 0.0 0.0 0.0 0.0 0.0 0.0
0.0 0.0 0.0 0.0 0.0 0.0 0.0 0.0
