models/v2/casita.tflite (tflite, 60944 bytes, 18 tensors)

tfl.pseudo_qconst1 i1 [1, 1088] scale=0.0021114284 zero_point=0
000000 13 dd 0d c2 29 fc da 14 c0 db ea f4 0e fd d8 f2
       0.04011714 -0.07389999 0.027448568 -0.13090856 0.086568564 -0.008445714 -0.08023428 0.04222857 -0.13513142 -0.078122854 -0.046451427 -0.025337141 0.029559998 -0.0063342853 -0.08445714 -0.029559998
000010 e6 bf e8 03 36 a1 ec 1d fe cf 20 f0 d2 06 e8 f0
       -0.054897137 -0.13724285 -0.050674282 0.0063342853 0.11401714 -0.2005857 -0.04222857 0.061231423 -0.004222857 -0.10345999 0.06756571 -0.033782855 -0.09712571 0.0126685705 -0.050674282 -0.033782855
000020 c2 e0 b5 23 cc d9 ca e7 00 ac f3 fa e0 00 de ff
       -0.13090856 -0.06756571 -0.15835713 0.07389999 -0.109794274 -0.08234571 -0.11401714 -0.05278571 0.0 -0.17735998 -0.027448568 -0.0126685705 -0.06756571 0.0 -0.071788564 -0.0021114284
000030 a8 c9 18 aa be 2b 09 d1 1c 03 dc 2b bb 07 e6 ba
       -0.18580571 -0.116128564 0.050674282 -0.18158284 -0.13935427 0.09079142 0.019002855 -0.09923714 0.059119996 0.0063342853 -0.07601142 0.09079142 -0.14568856 0.014779999 -0.054897137 -0.14779998
000040 ed e6 14 c3 2f 1d e3 f3 d0 e5 f4 d7 fa c6 dc 2c
       -0.04011714 -0.054897137 0.04222857 -0.12879713 0.09923714 0.061231423 -0.061231423 -0.027448568 -0.101348564 -0.05700857 -0.025337141 -0.086568564 -0.0126685705 -0.12246285 -0.07601142 0.092902854
000050 10 d4 0a cc fd cf 09 ef 14 d6 22 c6 b7 f5 f2 d6
       0.033782855 -0.092902854 0.021114284 -0.109794274 -0.0063342853 -0.10345999 0.019002855 -0.035894282 0.04222857 -0.08867999 0.071788564 -0.12246285 -0.15413427 -0.023225714 -0.029559998 -0.08867999
000060 e7 fc bf 0b e5 be d3 fc 0b e7 1c 0d fb e1 18 ed
       -0.05278571 -0.008445714 -0.13724285 0.023225714 -0.05700857 -0.13935427 -0.09501428 -0.008445714 0.023225714 -0.05278571 0.059119996 0.027448568 -0.010557142 -0.06545428 0.050674282 -0.04011714
000070 cf eb 1f b6 d0 1d f8 a9 1f f6 df 23 cf 00 d8 c5
       -0.10345999 -0.044339996 0.06545428 -0.15624571 -0.101348564 0.061231423 -0.016891427 -0.18369427 0.06545428 -0.021114284 -0.06967714 0.07389999 -0.10345999 0.0 -0.08445714 -0.124574274
000080 17 e8 24 ab 16 f6 ca c2 e5 da f8 fb d7 a7 f3 09
       0.048562855 -0.050674282 0.07601142 -0.17947142 0.046451427 -0.021114284 -0.11401714 -0.13090856 -0.05700857 -0.08023428 -0.016891427 -0.010557142 -0.086568564 -0.18791713 -0.027448568 0.019002855
000090 13 bc 13 be f9 d0 04 0c ce be d5 d8 e0 2c df b3
       0.04011714 -0.14357713 0.04011714 -0.13935427 -0.014779999 -0.101348564 0.008445714 0.025337141 -0.10557142 -0.13935427 -0.09079142 -0.08445714 -0.06756571 0.092902854 -0.06967714 -0.16257998
0000a0 c3 08 eb 2f d5 cd f9 dd cc bc fc e4 06 cf 01 02
       -0.12879713 0.016891427 -0.044339996 0.09923714 -0.09079142 -0.10768285 -0.014779999 -0.07389999 -0.109794274 -0.14357713 -0.008445714 -0.059119996 0.0126685705 -0.10345999 0.0021114284 0.004222857
0000b0 ef e3 f3 ca d6 23 1d dc f2 d1 ea eb eb e0 b8 e0
       -0.035894282 -0.061231423 -0.027448568 -0.11401714 -0.08867999 0.07389999 0.061231423 -0.07601142 -0.029559998 -0.09923714 -0.046451427 -0.044339996 -0.044339996 -0.06756571 -0.15202284 -0.06756571
0000c0 0b 12 ec d7 fc f0 e0 cd ce ef f7 c7 f2 a0 f5 0f
       0.023225714 0.03800571 -0.04222857 -0.086568564 -0.008445714 -0.033782855 -0.06756571 -0.10768285 -0.10557142 -0.035894282 -0.019002855 -0.12035142 -0.029559998 -0.20269713 -0.023225714 0.031671427
0000d0 12 dc fb c0 27 d3 14 11 d1 ed 0e 12 e4 2c c7 aa
       0.03800571 -0.07601142 -0.010557142 -0.13513142 0.08234571 -0.09501428 0.04222857 0.035894282 -0.09923714 -0.04011714 0.029559998 0.03800571 -0.059119996 0.092902854 -0.12035142 -0.18158284
0000e0 c4 fa dd 0c b6 f7 f1 c5 0c f6 0c 17 0d 04 01 f3
       -0.12668571 -0.0126685705 -0.07389999 0.025337141 -0.15624571 -0.019002855 -0.031671427 -0.124574274 0.025337141 -0.021114284 0.025337141 0.048562855 0.027448568 0.008445714 0.0021114284 -0.027448568
0000f0 e0 cc f3 d1 ee 2d ff d5 19 f0 fc e9 fc d6 e7 c4
       -0.06756571 -0.109794274 -0.027448568 -0.09923714 -0.03800571 0.09501428 -0.0021114284 -0.09079142 0.05278571 -0.033782855 -0.008445714 -0.048562855 -0.008445714 -0.08867999 -0.05278571 -0.12668571

tfl.pseudo_qconst3 i1 [64, 1, 1, 64]
000000 81 fa 53 86 fc 2f a4 b3 08 3d 2e 0c 1f 44 01 f3
       -127 -6 83 -122 -4 47 -92 -77 8 61 46 12 31 68 1 -13
000010 f0 a8 15 63 0f 00 72 06 17 6a 5d 24 4c 23 d7 08
       -16 -88 21 99 15 0 114 6 23 106 93 36 76 35 -41 8
000020 ec da 93 e5 02 a7 cf ce 3f 15 2f 02 fe f4 3d 4d
       -20 -38 -109 -27 2 -89 -49 -50 63 21 47 2 -2 -12 61 77
000030 db 3c 3b 0c c4 f1 20 fc cf 59 96 02 cf 05 23 41
       -37 60 59 12 -60 -15 32 -4 -49 89 -106 2 -49 5 35 65
000040 cc fa 0e d9 d8 9e df d7 ed 53 45 2b 19 4d ba 4f
       -52 -6 14 -39 -40 -98 -33 -41 -19 83 69 43 25 77 -70 79
000050 d2 e9 29 d6 c7 07 e9 c7 2a 1f 36 32 ed cf 16 24
       -46 -23 41 -42 -57 7 -23 -57 42 31 54 50 -19 -49 22 36
000060 9e 1c 66 23 2f 2e 1c f6 40 3a 22 f4 16 7f ba 0d
       -98 28 102 35 47 46 28 -10 64 58 34 -12 22 127 -70 13
000070 13 55 1c 53 f2 00 b7 00 2b cf cd 33 c3 af cb da
       19 85 28 83 -14 0 -73 0 43 -49 -51 51 -61 -81 -53 -38
000080 01 10 0a d3 2a 22 48 3b d4 77 fd 62 33 ce c4 5d
       1 16 10 -45 42 34 72 59 -44 119 -3 98 51 -50 -60 93
000090 f0 15 fd 1c 61 cd 0b db 4f 4e bd f2 bd 62 23 35
       -16 21 -3 28 97 -51 11 -37 79 78 -67 -14 -67 98 35 53
0000a0 4d 05 cc ac 23 e3 ea f8 f8 29 2e bd d1 e3 46 f2
       77 5 -52 -84 35 -29 -22 -8 -8 41 46 -67 -47 -29 70 -14
0000b0 31 c5 4c 38 7f c3 23 ec d4 eb 4f 0d bd 09 91 09
       49 -59 76 56 127 -61 35 -20 -44 -21 79 13 -67 9 -111 9
0000c0 f0 5c f4 ea 22 b5 bc c6 02 7f 43 05 2e 2a cf 0c
       -16 92 -12 -22 34 -75 -68 -58 2 127 67 5 46 42 -49 12
0000d0 0c a5 5b 5a e3 fe 28 db 26 26 33 20 15 c0 d7 31
       12 -91 91 90 -29 -2 40 -37 38 38 51 32 21 -64 -41 49
0000e0 ff d6 fa 70 ed cb 18 90 9f 13 c1 1f 05 2e 1e d7
       -1 -42 -6 112 -19 -53 24 -112 -97 19 -63 31 5 46 30 -41
0000f0 0a 30 cf f0 15 32 3e 3e c9 d7 04 f9 30 b6 19 b7
       10 48 -49 -16 21 50 62 62 -55 -41 4 -7 48 -74 25 -73

tfl.pseudo_qconst5 i1 [1, 23, 1, 64]
000000 c4 b7 48 81 f1 7f 20 30 5b 81 b9 28 6e 39 c5 15
       -60 -73 72 -127 -15 127 32 48 91 -127 -71 40 110 57 -59 21
000010 29 e6 b8 70 df 44 7f d7 e8 68 c7 e5 5c 62 18 d9
       41 -26 -72 112 -33 68 127 -41 -24 104 -57 -27 92 98 24 -39
000020 ef 11 01 cf 44 3a 15 3e 6c 14 15 06 81 20 7f f1
       -17 17 1 -49 68 58 21 62 108 20 21 6 -127 32 127 -15
000030 0e 0a 20 28 d2 a3 91 f4 a7 0a fe 43 bf 6e 1c bd
       14 10 32 40 -46 -93 -111 -12 -89 10 -2 67 -65 110 28 -67
000040 81 0c 12 a1 81 4f 22 bc 7f bf ee fb 1c 12 ba 25
       -127 12 18 -95 -127 79 34 -68 127 -65 -18 -5 28 18 -70 37
000050 40 15 a2 7f c4 50 46 81 81 2e b3 34 4f f3 18 c3
       64 21 -94 127 -60 80 70 -127 -127 46 -77 52 79 -13 24 -61
000060 03 2e 1a e0 34 46 28 f9 57 02 e1 23 cd d3 3d 1b
       3 46 26 -32 52 70 40 -7 87 2 -31 35 -51 -45 61 27
000070 0f 11 0e 28 f4 af f3 c5 a1 52 cf 06 c8 7f c8 d1
       15 17 14 40 -12 -81 -13 -59 -95 82 -49 6 -56 127 -56 -47
000080 d4 b3 d1 bb 05 50 54 ce 15 c9 cf 15 20 24 dc 28
       -44 -77 -47 -69 5 80 84 -50 21 -55 -49 21 32 36 -36 40
000090 f1 db cd 66 9d 57 3b 91 a2 c8 95 2c 70 58 e2 f0
       -15 -37 -51 102 -99 87 59 -111 -94 -56 -107 44 112 88 -30 -16
0000a0 c1 28 d5 f8 ed 48 38 f8 7f a1 18 3d c0 de 57 f9
       -63 40 -43 -8 -19 72 56 -8 127 -95 24 61 -64 -34 87 -7
0000b0 1f 5f 7f 2e ee d0 e4 d6 ab 31 f5 81 ff 70 db 05
       31 95 127 46 -18 -48 -28 -42 -85 49 -11 -127 -1 112 -37 5
0000c0 82 e2 ad d9 a7 49 25 bc db a5 c5 c5 b6 fb aa 12
       -126 -30 -83 -39 -89 73 37 -68 -37 -91 -59 -59 -74 -5 -86 18
0000d0 ee 37 b6 72 b7 04 41 bd df fc ce 1a 76 85 fc 00
       -18 55 -74 114 -73 4 65 -67 -33 -4 -50 26 118 -123 -4 0
0000e0 fb 72 af e4 20 73 56 db 69 b2 e2 46 0e a5 3b c9
       -5 114 -81 -28 32 115 86 -37 105 -78 -30 70 14 -91 59 -55
0000f0 5c 3b 5f 2a 26 ec e0 c5 2e ec d4 b6 ee 15 5b cd
       92 59 95 42 38 -20 -32 -59 46 -20 -44 -74 -18 21 91 -51

tfl.pseudo_qconst7 i1 [64, 1, 1, 64]
000000 ff c1 e5 df f7 14 ed 22 0b ea f2 f3 df f1 11 ef
       -1 -63 -27 -33 -9 20 -19 34 11 -22 -14 -13 -33 -15 17 -17
000010 e4 81 dc 3a 0c 16 31 ff e7 fa b7 e9 ea 1f fd 0e
       -28 -127 -36 58 12 22 49 -1 -25 -6 -73 -23 -22 31 -3 14
000020 f6 fe 02 de f2 1d 2e 21 c1 e2 0b 32 16 35 05 ef
       -10 -2 2 -34 -14 29 46 33 -63 -30 11 50 22 53 5 -17
000030 df f6 db e1 b5 d8 00 0b 1e 04 f0 08 de a9 0f 1e
       -33 -10 -37 -31 -75 -40 0 11 30 4 -16 8 -34 -87 15 30
000040 67 c1 03 2a d3 16 ee bc 03 fd 06 21 13 c8 29 3c
       103 -63 3 42 -45 22 -18 -68 3 -3 6 33 19 -56 41 60
000050 ff ad f0 02 7f 2d fd b3 f6 d2 f4 09 c1 01 36 67
       -1 -83 -16 2 127 45 -3 -77 -10 -46 -12 9 -63 1 54 103
000060 fb 24 34 27 b5 4a 2e 54 2a c9 fa 15 2a 5b d9 d1
       -5 36 52 39 -75 74 46 84 42 -55 -6 21 42 91 -39 -47
000070 ec f8 72 cf a7 d6 ef 45 38 de 0f 47 58 fe c0 ae
       -20 -8 114 -49 -89 -42 -17 69 56 -34 15 71 88 -2 -64 -82
000080 f5 d7 52 0c f1 e2 e5 d0 d2 b7 18 b7 f2 ac f5 c9
       -11 -41 82 12 -15 -30 -27 -48 -46 -73 24 -73 -14 -84 -11 -55
000090 c0 43 16 49 d0 62 26 f4 4f 1c bf d4 c1 1d d6 e2
       -64 67 22 73 -48 98 38 -12 79 28 -65 -44 -63 29 -42 -30
0000a0 04 b8 ea 28 c3 07 81 89 1c fe 22 21 f4 45 14 e1
       4 -72 -22 40 -61 7 -127 -119 28 -2 34 33 -12 69 20 -31
0000b0 41 08 f9 41 fe 3c 08 df d2 cc e3 2b 4c 04 d1 c4
       65 8 -7 65 -2 60 8 -33 -46 -52 -29 43 76 4 -47 -60
0000c0 1b e2 4d e4 2e 1b 8a 12 0e 00 7f c9 ac 39 e1 b0
       27 -30 77 -28 46 27 -118 18 14 0 127 -55 -84 57 -31 -80
0000d0 5e 5c d5 19 aa 9b ae ca 08 01 25 ae d1 1f 1d 03
       94 92 -43 25 -86 -101 -82 -54 8 1 37 -82 -47 31 29 3
0000e0 c9 ee 34 b9 1b 47 ea 0b 62 08 e3 40 23 01 1e 37
       -55 -18 52 -71 27 71 -22 11 98 8 -29 64 35 1 30 55
0000f0 45 2b 1a da 0a 2d 2e 15 90 67 92 3d e3 bf 0d f4
       69 43 26 -38 10 45 46 21 -112 103 -110 61 -29 -65 13 -12

tfl.pseudo_qconst9 i1 [1, 15, 1, 32]
000000 34 05 04 3b 2a b8 33 0d 7f 9e 70 7f f6 d8 aa 7f
       52 5 4 59 42 -72 51 13 127 -98 112 127 -10 -40 -86 127
000010 1c 2d 81 b7 ea b8 60 c4 a9 ba 7f 23 fc f2 f2 81
       28 45 -127 -73 -22 -72 96 -60 -87 -70 127 35 -4 -14 -14 -127
000020 db 7d 44 f3 e8 f8 ec 40 66 ae 17 60 32 9d d1 1a
       -37 125 68 -13 -24 -8 -20 64 102 -82 23 96 50 -99 -47 26
000030 f9 7f f9 b1 d3 81 6e b4 d2 9f 26 81 ef 07 00 ba
       -7 127 -7 -79 -45 -127 110 -76 -46 -97 38 -127 -17 7 0 -70
000040 2b 42 db eb be 81 e6 2c db d1 30 1e 42 e6 16 09
       43 66 -37 -21 -66 -127 -26 44 -37 -47 48 30 66 -26 22 9
000050 38 6a c5 40 f7 8c f2 de e4 f6 3a c7 ee ae de d3
       56 106 -59 64 -9 -116 -14 -34 -28 -10 58 -57 -18 -82 -34 -45
000060 29 58 e9 dc 9c f7 43 fb 5a 81 50 1e 1b d9 4c d6
       41 88 -23 -36 -100 -9 67 -5 90 -127 80 30 27 -39 76 -42
000070 07 3c bb df b3 79 44 90 2b de 36 ab 22 f4 5e 57
       7 60 -69 -33 -77 121 68 -112 43 -34 54 -85 34 -12 94 87
000080 be aa 49 81 ec e6 35 f8 13 c3 c5 01 21 7f 4c 10
       -66 -86 73 -127 -20 -26 53 -8 19 -61 -59 1 33 127 76 16
000090 06 58 cd 18 d6 e5 d7 b5 f8 a2 14 02 fe 31 65 29
       6 88 -51 24 -42 -27 -41 -75 -8 -94 20 2 -2 49 101 41
0000a0 ce d2 fa 0a 81 37 51 59 ee df 7f f2 cd 5f 2e 20
       -50 -46 -6 10 -127 55 81 89 -18 -33 127 -14 -51 95 46 32
0000b0 f6 fb ca 2e bd 42 30 aa 21 9c 0d bd 1e e7 5f 4f
       -10 -5 -54 46 -67 66 48 -86 33 -100 13 -67 30 -25 95 79
0000c0 90 2b d8 04 ea d4 f4 27 36 8a 77 1b 4c 4b 21 2b
       -112 43 -40 4 -22 -44 -12 39 54 -118 119 27 76 75 33 43
0000d0 be 17 ce d8 8a 35 08 9e 10 81 0f c4 05 3c dd 16
       -66 23 -50 -40 -118 53 8 -98 16 -127 15 -60 5 60 -35 22
0000e0 d2 3f f0 fe a2 d8 7f cb 62 fd 21 d9 79 cb 57 c9
       -46 63 -16 -2 -94 -40 127 -53 98 -3 33 -39 121 -53 87 -55
0000f0 eb 0c b3 cf f9 3b a8 ee c3 a8 f6 9f 2c 45 2a 74
       -21 12 -77 -49 -7 59 -88 -18 -61 -88 -10 -97 44 69 42 116

tfl.pseudo_qconst11 i1 [1, 9, 1, 32]
000000 21 02 29 50 3a 4a 7f 0f a1 7f f1 46 a5 bd 3b 82
       33 2 41 80 58 74 127 15 -95 127 -15 70 -91 -67 59 -126
000010 8a 48 e7 7f 37 34 59 16 d2 31 ec 14 18 dc d5 e9
       -118 72 -25 127 55 52 89 22 -46 49 -20 20 24 -36 -43 -23
000020 2b 7f b8 ea 24 fb 35 f4 ef 33 c6 ec 23 32 18 81
       43 127 -72 -22 36 -5 53 -12 -17 51 -58 -20 35 50 24 -127
000030 83 15 72 c8 6a a6 cd a2 b6 27 2d 0f 05 01 3e c1
       -125 21 114 -56 106 -90 -51 -94 -74 39 45 15 5 1 62 -63
000040 cc 53 b1 ef f0 eb b3 c7 d0 3e 11 99 42 2d 4a 91
       -52 83 -79 -17 -16 -21 -77 -57 -48 62 17 -103 66 45 74 -111
000050 29 00 08 3d 35 c9 e3 90 81 cd e7 ed bb 20 42 db
       41 0 8 61 53 -55 -29 -112 -127 -51 -25 -19 -69 32 66 -37
000060 15 e6 89 23 0a 3a 9c ab f9 40 7f 18 15 20 ce 9c
       21 -26 -119 35 10 58 -100 -85 -7 64 127 24 21 32 -50 -100
000070 7f 2d ff 59 07 e5 7f 61 d0 f3 25 b2 dd ed 24 b2
       127 45 -1 89 7 -27 127 97 -48 -13 37 -78 -35 -19 36 -78
000080 ce e2 81 05 19 1b a6 81 7f 16 54 81 cc 9a 81 61
       -50 -30 -127 5 25 27 -90 -127 127 22 84 -127 -52 -102 -127 97
000090 6e 22 3c b5 81 3b 74 aa 40 9d 76 99 51 03 7f f0
       110 34 60 -75 -127 59 116 -86 64 -99 118 -103 81 3 127 -16
0000a0 41 d1 c1 54 19 b4 70 84 4b d3 ed 6f 7f b5 49 f5
       65 -47 -63 84 25 -76 112 -124 75 -45 -19 111 127 -75 73 -11
0000b0 de cb 3e d7 07 f2 6b 81 4c dc 2d 08 37 9c b4 47
       -34 -53 62 -41 7 -14 107 -127 76 -36 45 8 55 -100 -76 71
0000c0 f2 b5 8b be fc ad 78 ab 22 d4 17 ed 62 98 12 85
       -14 -75 -117 -66 -4 -83 120 -85 34 -44 23 -19 98 -104 18 -123
0000d0 b0 c3 d1 ed 24 f4 4a dc 2c 87 7f 90 a0 81 37 41
       -80 -61 -47 -19 36 -12 74 -36 44 -121 127 -112 -96 -127 55 65
0000e0 7f 19 e1 d6 f6 81 2f b8 5c bd 0a bf ff 81 08 27
       127 25 -31 -42 -10 -127 47 -72 92 -67 10 -65 -1 -127 8 39
0000f0 86 8e d4 11 27 81 11 46 e7 c4 32 81 8f a3 fc 7f
       -122 -114 -44 17 39 -127 17 70 -25 -60 50 -127 -113 -93 -4 127

tfl.pseudo_qconst13 i1 [64, 1, 1, 64]
000000 7b ec ce 76 ff 50 8d e2 f6 af d6 13 22 1c 47 13
       123 -20 -50 118 -1 80 -115 -30 -10 -81 -42 19 34 28 71 19
000010 3f 90 67 f4 78 c0 d2 38 e1 2e 49 4b 38 b5 ce b9
       63 -112 103 -12 120 -64 -46 56 -31 46 73 75 56 -75 -50 -71
000020 2e 19 b4 43 44 11 20 57 da af 4c f8 39 c9 b1 14
       46 25 -76 67 68 17 32 87 -38 -81 76 -8 57 -55 -79 20
000030 f7 7f a7 c8 5c a0 5c a7 b1 43 0d 13 07 c5 f3 e9
       -9 127 -89 -56 92 -96 92 -89 -79 67 13 19 7 -59 -13 -23
000040 f0 ba 53 8e ec f5 06 6f 22 4b c2 bd 55 c2 73 3e
       -16 -70 83 -114 -20 -11 6 111 34 75 -62 -67 85 -62 115 62
000050 f9 c6 d8 e4 cf 0a ac f1 1f e1 c8 b7 a4 dd e1 d9
       -7 -58 -40 -28 -49 10 -84 -15 31 -31 -56 -73 -92 -35 -31 -39
000060 32 e7 2c a0 57 cd 5b 11 25 03 eb 49 08 bf 49 07
       50 -25 44 -96 87 -51 91 17 37 3 -21 73 8 -65 73 7
000070 ac bf 3b 2a dd b3 7f 8f b8 02 9b b8 68 f9 60 dc
       -84 -65 59 42 -35 -77 127 -113 -72 2 -101 -72 104 -7 96 -36
000080 cd 41 bb c1 5d 3c 03 0b 49 5f d7 f5 99 a4 b8 ff
       -51 65 -69 -63 93 60 3 11 73 95 -41 -11 -103 -92 -72 -1
000090 59 c0 d2 0a 1a 64 2f c4 5f e3 96 82 13 26 a5 ec
       89 -64 -46 10 26 100 47 -60 95 -29 -106 -126 19 38 -91 -20
0000a0 16 26 4d eb 15 1c af 1f e0 23 39 2c 7f 0e 50 c4
       22 38 77 -21 21 28 -81 31 -32 35 57 44 127 14 80 -60
0000b0 5e fc f9 0e 99 32 0f 13 b4 5a 16 ca 2b 8a 29 0d
       94 -4 -7 14 -103 50 15 19 -76 90 22 -54 43 -118 41 13
0000c0 c6 b4 be df d8 26 55 5a 10 41 d5 02 5b 27 f3 f7
       -58 -76 -66 -33 -40 38 85 90 16 65 -43 2 91 39 -13 -9
0000d0 a9 ca cc 4e 28 7c bd d5 24 b3 cb ea dd d3 8a 24
       -87 -54 -52 78 40 124 -67 -43 36 -77 -53 -22 -35 -45 -118 36
0000e0 f0 4c 3b db 4e 7f 0a c8 03 00 1e ca 54 cf 01 e8
       -16 76 59 -37 78 127 10 -56 3 0 30 -54 84 -49 1 -24
0000f0 eb da ea fd e7 9e d3 49 d4 c7 1d 48 dd 47 be dc
       -21 -38 -22 -3 -25 -98 -45 73 -44 -57 29 72 -35 71 -66 -36

tfl.pseudo_qconst15 i1 [1, 11, 1, 32]
000000 26 7f e7 b1 01 04 15 fc 9f 8f f3 17 07 0e 19 ec
       38 127 -25 -79 1 4 21 -4 -97 -113 -13 23 7 14 25 -20
000010 de dc ba 01 a2 e9 7f 27 b9 e4 b7 d1 ac af f1 18
       -34 -36 -70 1 -94 -23 127 39 -71 -28 -73 -47 -84 -81 -15 24
000020 fe 0d 97 04 e6 7f 17 c4 08 eb 7c eb 21 92 f1 6f
       -2 13 -105 4 -26 127 23 -60 8 -21 124 -21 33 -110 -15 111
000030 81 ec f1 f0 81 bb 42 81 42 81 81 d0 b5 e9 88 b8
       -127 -20 -15 -16 -127 -69 66 -127 66 -127 -127 -48 -75 -23 -120 -72
000040 5f e7 29 24 bf 6b 69 60 be 9a eb 13 eb 97 db e6
       95 -25 41 36 -65 107 105 96 -66 -102 -21 19 -21 -105 -37 -26
000050 12 cf 96 81 98 3c 79 af 19 43 98 b7 9d 2a 38 ae
       18 -49 -106 -127 -104 60 121 -81 25 67 -104 -73 -99 42 56 -82
000060 3f 99 5d 7f a7 2f f5 e2 05 66 e3 cc d7 f1 0c 52
       63 -103 93 127 -89 47 -11 -30 5 102 -29 -52 -41 -15 12 82
000070 05 dd b2 a7 30 40 62 d6 16 25 b2 d6 98 ad 3e 06
       5 -35 -78 -89 48 64 98 -42 22 37 -78 -42 -104 -83 62 6
000080 16 d1 57 6c 52 56 3a 6f 84 23 dd 07 f3 c2 0d bd
       22 -47 87 108 82 86 58 111 -124 35 -35 7 -13 -62 13 -67
000090 dd 29 ef a0 09 fa 4d c4 7f b0 25 19 ae 2f 06 fc
       -35 41 -17 -96 9 -6 77 -60 127 -80 37 25 -82 47 6 -4
0000a0 e0 be 7b eb a0 01 81 c7 2a 4f 2a 97 ed a4 4f 7f
       -32 -66 123 -21 -96 1 -127 -57 42 79 42 -105 -19 -92 79 127
0000b0 44 08 71 fa b4 3f 36 d5 33 cb f7 c6 ed f5 1f 20
       68 8 113 -6 -76 63 54 -43 51 -53 -9 -58 -19 -11 31 32
0000c0 04 99 61 c4 81 32 cc d9 ad 7f 5e 81 1c c5 2b 63
       4 -103 97 -60 -127 50 -52 -39 -83 127 94 -127 28 -59 43 99
0000d0 f5 de fe f0 20 d7 14 f7 3e 92 fb 81 2a 4f a5 19
       -11 -34 -2 -16 32 -41 20 -9 62 -110 -5 -127 42 79 -91 25
0000e0 f4 65 7b 22 81 28 ef 81 2c 0f b0 a3 0f 25 71 a7
       -12 101 123 34 -127 40 -17 -127 44 15 -80 -93 15 37 113 -89
0000f0 58 41 ac e6 26 dd 11 f8 21 2a 68 c0 81 75 f7 de
       88 65 -84 -26 38 -35 17 -8 33 42 104 -64 -127 117 -9 -34

tfl.pseudo_qconst17 i1 [1, 7, 1, 32]
000000 3c 81 3e 55 40 c9 50 fc 09 5b ac 61 6b eb b7 81
       60 -127 62 85 64 -55 80 -4 9 91 -84 97 107 -21 -73 -127
000010 02 16 ab 4a 52 7d c9 81 11 dd ae 86 5d 88 7d f6
       2 22 -85 74 82 125 -55 -127 17 -35 -82 -122 93 -120 125 -10
000020 01 d3 dc 4e 27 7f 25 7f 93 ed df 7f 5a 81 fb 3c
       1 -45 -36 78 39 127 37 127 -109 -19 -33 127 90 -127 -5 60
000030 11 08 81 08 3b 59 d1 54 b9 03 d3 d0 7f b6 ec 7a
       17 8 -127 8 59 89 -47 84 -71 3 -45 -48 127 -74 -20 122
000040 4f 01 7f 3c 56 94 55 26 11 f2 e7 58 92 c0 56 9c
       79 1 127 60 86 -108 85 38 17 -14 -25 88 -110 -64 86 -100
000050 27 02 c1 7f cf 53 16 bc c0 12 d9 dd 17 c1 cf 76
       39 2 -63 127 -49 83 22 -68 -64 18 -39 -35 23 -63 -49 118
000060 9a 03 d6 ab f7 6e 9c cc 7f d2 7f d3 92 60 b3 0b
       -102 3 -42 -85 -9 110 -100 -52 127 -46 127 -45 -110 96 -77 11
000070 41 81 1b e8 81 cb 7f ee 36 ed 19 c7 62 72 4b 7f
       65 -127 27 -24 -127 -53 127 -18 54 -19 25 -57 98 114 75 127
000080 81 33 3d fe 29 32 81 95 11 97 e8 0c 81 5c 81 bf
       -127 51 61 -2 41 50 -127 -107 17 -105 -24 12 -127 92 -127 -65
000090 21 b1 67 d6 21 36 35 33 30 5a 78 e1 33 c7 d4 29
       33 -79 103 -42 33 54 53 51 48 90 120 -31 51 -57 -44 41
0000a0 ee 51 04 17 81 35 de 4a 22 27 a2 5b 9d e8 f1 53
       -18 81 4 23 -127 53 -34 74 34 39 -94 91 -99 -24 -15 83
0000b0 44 e3 1e e0 4c 65 02 14 f4 7f 37 68 ea 7f 7f d4
       68 -29 30 -32 76 101 2 20 -12 127 55 104 -22 127 127 -44
0000c0 96 63 57 7f b9 f6 62 e2 5a 81 b0 59 dd 2c a0 93
       -106 99 87 127 -71 -10 98 -30 90 -127 -80 89 -35 44 -96 -109
0000d0 7f 07 03 c3 db 7f ec f7 81 15 81 7f ee f2 57 ac
       127 7 3 -61 -37 127 -20 -9 -127 21 -127 127 -18 -14 87 -84

tfl.pseudo_qconst19 i1 [64, 1, 1, 32]
000000 99 f6 0d 4c 47 e8 27 1c 3d 81 11 1d 63 b3 e8 19
       -103 -10 13 76 71 -24 39 28 61 -127 17 29 99 -77 -24 25
000010 ea 2e db 0d 16 20 e3 f8 c6 e5 d1 62 ce 00 d5 01
       -22 46 -37 13 22 32 -29 -8 -58 -27 -47 98 -50 0 -43 1
000020 7b 48 1f 04 eb 3e 10 33 cd f9 6e 60 dc 35 39 c9
       123 72 31 4 -21 62 16 51 -51 -7 110 96 -36 53 57 -55
000030 df e0 2f af 5c 40 b2 d7 81 0f 79 b6 47 dc f7 be
       -33 -32 47 -81 92 64 -78 -41 -127 15 121 -74 71 -36 -9 -66
000040 ef 81 ed c4 00 d3 ff cb 03 30 1f c4 b9 b9 20 e8
       -17 -127 -19 -60 0 -45 -1 -53 3 48 31 -60 -71 -71 32 -24
000050 18 f7 dd fc 4d 11 2f 9b 1d 0c e5 13 1b ea 26 d4
       24 -9 -35 -4 77 17 47 -101 29 12 -27 19 27 -22 38 -44
000060 cb fa 11 ff 70 c2 21 70 eb a3 d0 36 93 d7 fb 28
       -53 -6 17 -1 112 -62 33 112 -21 -93 -48 54 -109 -41 -5 40
000070 22 4e ae a5 30 a9 5e 28 08 81 db 2b 56 fc f6 0b
       34 78 -82 -91 48 -87 94 40 8 -127 -37 43 86 -4 -10 11
000080 a4 0b 0e ea c7 19 e6 d3 df 26 1d 1a 2b d7 0e eb
       -92 11 14 -22 -57 25 -26 -45 -33 38 29 26 43 -41 14 -21
000090 c1 37 81 bf ac f9 c0 f4 28 f6 30 b6 23 1d de db
       -63 55 -127 -65 -84 -7 -64 -12 40 -10 48 -74 35 29 -34 -37
0000a0 ee 0e 58 de cc dd 60 c6 a1 4b 2e 7f fe 15 47 f2
       -18 14 88 -34 -52 -35 96 -58 -95 75 46 127 -2 21 71 -14
0000b0 6c f0 82 be c5 a4 c5 a8 6a 34 f5 ba d0 dd 08 3c
       108 -16 -126 -66 -59 -92 -59 -88 106 52 -11 -70 -48 -35 8 60
0000c0 01 0d 96 5c 4c d7 b8 03 2c fe 3d 5f e1 f1 83 31
       1 13 -106 92 76 -41 -72 3 44 -2 61 95 -31 -15 -125 49
0000d0 44 a6 98 68 81 42 89 38 dc 4c a6 db 57 57 2f 4e
       68 -90 -104 104 -127 66 -119 56 -36 76 -90 -37 87 87 47 78
0000e0 c2 41 bd 32 38 b5 45 8f a9 5d 38 40 eb e9 fd 3e
       -62 65 -67 50 56 -75 69 -113 -87 93 56 64 -21 -23 -3 62
0000f0 0a 11 a3 7f 1a 49 ca cb d5 5e c7 a7 19 c0 20 e9
       10 17 -93 127 26 73 -54 -53 -43 94 -57 -89 25 -64 32 -23

tfl.pseudo_qconst21 i1 [1, 5, 1, 32]
000000 50 16 f2 d9 50 3d e0 bf 51 7f ca 4c 52 48 db 91
       80 22 -14 -39 80 61 -32 -65 81 127 -54 76 82 72 -37 -111
000010 f1 55 40 f2 89 7f 58 79 6a 6c 7f 1a 8b 3e 77 1c
       -15 85 64 -14 -119 127 88 121 106 108 127 26 -117 62 119 28
000020 6f 72 c7 81 bf e3 63 81 7d 0b ef 7f 90 59 ce 2a
       111 114 -57 -127 -65 -29 99 -127 125 11 -17 127 -112 89 -50 42
000030 dd 7f 5e fe 4d 63 dd 7f 81 e1 59 93 f2 49 7f 76
       -35 127 94 -2 77 99 -35 127 -127 -31 89 -109 -14 73 127 118
000040 e2 e9 a3 4b 7f d7 eb 11 67 a3 7f 1e d3 35 b6 11
       -30 -23 -93 75 127 -41 -21 17 103 -93 127 30 -45 53 -74 17
000050 e5 61 05 d1 09 c2 4d 7b c9 92 aa 1b 81 7f f5 7f
       -27 97 5 -47 9 -62 77 123 -55 -110 -86 27 -127 127 -11 127
000060 b7 7f 2c 25 6b 81 ef f3 81 a0 72 ae 7f 81 81 7d
       -73 127 44 37 107 -127 -17 -13 -127 -96 114 -82 127 -127 -127 125
000070 7f a9 65 81 7f c0 3f fe d8 95 39 39 a9 c6 6c fa
       127 -87 101 -127 127 -64 63 -2 -40 -107 57 57 -87 -58 108 -6
000080 81 d6 7f 24 f5 cb 81 3c d2 15 e6 0a 64 30 1c 7f
       -127 -42 127 36 -11 -53 -127 60 -46 21 -26 10 100 48 28 127
000090 fb ea 7f 02 d9 1f 7f 4f 13 81 37 7f 16 18 37 d3
       -5 -22 127 2 -39 31 127 79 19 -127 55 127 22 24 55 -45

tfl.pseudo_qconst23 i1 [32, 5, 1, 40]
000000 72 22 4d fa 01 39 21 d3 ff 01 2a 3c 13 13 1c 24
       114 34 77 -6 1 57 33 -45 -1 1 42 60 19 19 28 36
000010 3f 02 ea 09 04 c5 08 df 13 ce 10 ca 10 ef 00 d4
       63 2 -22 9 4 -59 8 -33 19 -50 16 -54 16 -17 0 -44
000020 cb c9 a0 ee be 18 cc 07 7f 2f 4f 1b fc 3a 0d 03
       -53 -55 -96 -18 -66 24 -52 7 127 47 79 27 -4 58 13 3
000030 fb fb 12 59 32 05 23 29 10 f1 1c 1c ea e5 ef e1
       -5 -5 18 89 50 5 35 41 16 -15 28 28 -22 -27 -17 -31
000040 0b 02 f8 ff f7 22 0f f5 b1 e6 dc 14 fa 05 e1 e1
       11 2 -8 -1 -9 34 15 -11 -79 -26 -36 20 -6 5 -31 -31
000050 60 0f 17 ee 1a 3b 00 1a 0e 24 3b 49 30 01 2a 0e
       96 15 23 -18 26 59 0 26 14 36 59 73 48 1 42 14
000060 36 02 05 e2 0b f4 f0 26 1e ea 0f ea ef e2 d9 d5
       54 2 5 -30 11 -12 -16 38 30 -22 15 -22 -17 -30 -39 -43
000070 c6 f3 c3 08 eb f9 ff f6 71 0d 39 21 06 21 13 f5
       -58 -13 -61 8 -21 -7 -1 -10 113 13 57 33 6 33 19 -11
000080 11 3c 4c 36 3c d9 ee 4e 0c ef 1e f1 fe 03 09 18
       17 60 76 54 60 -39 -18 78 12 -17 30 -15 -2 3 9 24
000090 d5 17 1b d9 f7 f9 01 ea f9 d7 b5 d5 03 c0 cb fa
       -43 23 27 -39 -9 -7 1 -22 -7 -41 -75 -43 3 -64 -53 -6
0000a0 74 0a 0d 13 e7 d1 07 2b 15 17 04 1b 0a 1c f9 21
       116 10 13 19 -25 -47 7 43 21 23 4 27 10 28 -7 33
0000b0 f6 ea e3 0c 03 fd f9 0b d9 0a cc fa c2 10 ed 1b
       -10 -22 -29 12 3 -3 -7 11 -39 10 -52 -6 -62 16 -19 27
0000c0 cc f1 ee 00 eb ef 04 de e3 55 2c 3d fc 29 d9 0f
       -52 -15 -18 0 -21 -17 4 -34 -29 85 44 61 -4 41 -39 15
0000d0 fe 93 82 12 c1 15 dc af 0f f2 ff 39 2b 51 2b 31
       -2 -109 -126 18 -63 21 -36 -81 15 -14 -1 57 43 81 43 49
0000e0 3c 21 e3 50 1b e8 13 d7 da 31 1c d7 e2 04 a9 cb
       60 33 -29 80 27 -24 19 -41 -38 49 28 -41 -30 4 -87 -53
0000f0 f0 c9 cb 63 07 55 d8 fd f0 23 df d8 21 05 ee e8
       -16 -55 -53 99 7 85 -40 -3 -16 35 -33 -40 33 5 -18 -24

tfl.pseudo_qconst24 i1 [1, 22, 1, 64] scale=0.038962394 zero_point=-128
000000 80 80 80 80 80 80 80 80 80 80 80 80 80 80 80 80
       0.0 0.0 0.0 0.0 0.0 0.0 0.0 0.0 0.0 0.0 0.0 0.0 0.0 0.0 0.0 0.0
000010 80 80 80 80 80 80 80 80 80 80 80 80 80 80 80 80
       0.0 0.0 0.0 0.0 0.0 0.0 0.0 0.0 0.0 0.0 0.0 0.0 0.0 0.0 0.0 0.0
000020 80 80 80 80 80 80 80 80 80 80 80 80 80 80 80 80
       0.0 0.0 0.0 0.0 0.0 0.0 0.0 0.0 0.0 0.0 0.0 0.0 0.0 0.0 0.0 0.0
000030 80 80 80 80 80 80 80 80 80 80 80 80 80 80 80 80
       0.0 0.0 0.0 0.0 0.0 0.0 0.0 0.0 0.0 0.0 0.0 0.0 0.0 0.0 0.0 0.0
000040 80 80 80 80 80 80 80 80 80 80 80 80 80 80 80 80
       0.0 0.0 0.0 0.0 0.0 0.0 0.0 0.0 0.0 0.0 0.0 0.0 0.0 0.0 0.0 0.0
000050 80 80 80 80 80 80 80 80 80 80 80 80 80 80 80 80
       0.0 0.0 0.0 0.0 0.0 0.0 0.0 0.0 0.0 0.0 0.0 0.0 0.0 0.0 0.0 0.0
000060 80 80 80 80 80 80 80 80 80 80 80 80 80 80 80 80
       0.0 0.0 0.0 0.0 0.0 0.0 0.0 0.0 0.0 0.0 0.0 0.0 0.0 0.0 0.0 0.0
000070 80 80 80 80 80 80 80 80 80 80 80 80 80 80 80 80
       0.0 0.0 0.0 0.0 0.0 0.0 0.0 0.0 0.0 0.0 0.0 0.0 0.0 0.0 0.0 0.0
000080 80 80 80 80 80 80 80 80 80 80 80 80 80 80 80 80
       0.0 0.0 0.0 0.0 0.0 0.0 0.0 0.0 0.0 0.0 0.0 0.0 0.0 0.0 0.0 0.0
000090 80 80 80 80 80 80 80 80 80 80 80 80 80 80 80 80
       0.0 0.0 0.0 0.0 0.0 0.0 0.0 0.0 0.0 0.0 0.0 0.0 0.0 0.0 0.0 0.0
0000a0 80 80 80 80 80 80 80 80 80 80 80 80 80 80 80 80
       0.0 0.0 0.0 0.0 0.0 0.0 0.0 0.0 0.0 0.0 0.0 0.0 0.0 0.0 0.0 0.0
0000b0 80 80 80 80 80 80 80 80 80 80 80 80 80 80 80 80
       0.0 0.0 0.0 0.0 0.0 0.0 0.0 0.0 0.0 0.0 0.0 0.0 0.0 0.0 0.0 0.0
0000c0 80 80 80 80 80 80 80 80 80 80 80 80 80 80 80 80
       0.0 0.0 0.0 0.0 0.0 0.0 0.0 0.0 0.0 0.0 0.0 0.0 0.0 0.0 0.0 0.0
0000d0 80 80 80 80 80 80 80 80 80 80 80 80 80 80 80 80
       0.0 0.0 0.0 0.0 0.0 0.0 0.0 0.0 0.0 0.0 0.0 0.0 0.0 0.0 0.0 0.0
0000e0 80 80 80 80 80 80 80 80 80 80 80 80 80 80 80 80
       0.0 0.0 0.0 0.0 0.0 0.0 0.0 0.0 0.0 0.0 0.0 0.0 0.0 0.0 0.0 0.0
0000f0 80 80 80 80 80 80 80 80 80 80 80 80 80 80 80 80
       0.0 0.0 0.0 0.0 0.0 0.0 0.0 0.0 0.0 0.0 0.0 0.0 0.0 0.0 0.0 0.0

tfl.pseudo_qconst25 i1 [1, 16, 1, 64] scale=0.0282358 zero_point=-128
000000 80 80 80 80 80 80 80 80 80 80 80 80 80 80 80 80
       0.0 0.0 0.0 0.0 0.0 0.0 0.0 0.0 0.0 0.0 0.0 0.0 0.0 0.0 0.0 0.0
000010 80 80 80 80 80 80 80 80 80 80 80 80 80 80 80 80
       0.0 0.0 0.0 0.0 0.0 0.0 0.0 0.0 0.0 0.0 0.0 0.0 0.0 0.0 0.0 0.0
000020 80 80 80 80 80 80 80 80 80 80 80 80 80 80 80 80
       0.0 0.0 0.0 0.0 0.0 0.0 0.0 0.0 0.0 0.0 0.0 0.0 0.0 0.0 0.0 0.0
000030 80 80 80 80 80 80 80 80 80 80 80 80 80 80 80 80
       0.0 0.0 0.0 0.0 0.0 0.0 0.0 0.0 0.0 0.0 0.0 0.0 0.0 0.0 0.0 0.0
000040 80 80 80 80 80 80 80 80 80 80 80 80 80 80 80 80
       0.0 0.0 0.0 0.0 0.0 0.0 0.0 0.0 0.0 0.0 0.0 0.0 0.0 0.0 0.0 0.0
000050 80 80 80 80 80 80 80 80 80 80 80 80 80 80 80 80
       0.0 0.0 0.0 0.0 0.0 0.0 0.0 0.0 0.0 0.0 0.0 0.0 0.0 0.0 0.0 0.0
000060 80 80 80 80 80 80 80 80 80 80 80 80 80 80 80 80
       0.0 0.0 0.0 0.0 0.0 0.0 0.0 0.0 0.0 0.0 0.0 0.0 0.0 0.0 0.0 0.0
000070 80 80 80 80 80 80 80 80 80 80 80 80 80 80 80 80
       0.0 0.0 0.0 0.0 0.0 0.0 0.0 0.0 0.0 0.0 0.0 0.0 0.0 0.0 0.0 0.0
000080 80 80 80 80 80 80 80 80 80 80 80 80 80 80 80 80
       0.0 0.0 0.0 0.0 0.0 0.0 0.0 0.0 0.0 0.0 0.0 0.0 0.0 0.0 0.0 0.0
000090 80 80 80 80 80 80 80 80 80 80 80 80 80 80 80 80
       0.0 0.0 0.0 0.0 0.0 0.0 0.0 0.0 0.0 0.0 0.0 0.0 0.0 0.0 0.0 0.0
0000a0 80 80 80 80 80 80 80 80 80 80 80 80 80 80 80 80
       0.0 0.0 0.0 0.0 0.0 0.0 0.0 0.0 0.0 0.0 0.0 0.0 0.0 0.0 0.0 0.0
0000b0 80 80 80 80 80 80 80 80 80 80 80 80 80 80 80 80
       0.0 0.0 0.0 0.0 0.0 0.0 0.0 0.0 0.0 0.0 0.0 0.0 0.0 0.0 0.0 0.0
0000c0 80 80 80 80 80 80 80 80 80 80 80 80 80 80 80 80
       0.0 0.0 0.0 0.0 0.0 0.0 0.0 0.0 0.0 0.0 0.0 0.0 0.0 0.0 0.0 0.0
0000d0 80 80 80 80 80 80 80 80 80 80 80 80 80 80 80 80
       0.0 0.0 0.0 0.0 0.0 0.0 0.0 0.0 0.0 0.0 0.0 0.0 0.0 0.0 0.0 0.0
0000e0 80 80 80 80 80 80 80 80 80 80 80 80 80 80 80 80
       0.0 0.0 0.0 0.0 0.0 0.0 0.0 0.0 0.0 0.0 0.0 0.0 0.0 0.0 0.0 0.0
0000f0 80 80 80 80 80 80 80 80 80 80 80 80 80 80 80 80
       0.0 0.0 0.0 0.0 0.0 0.0 0.0 0.0 0.0 0.0 0.0 0.0 0.0 0.0 0.0 0.0

tfl.pseudo_qconst26 i1 [1, 2, 1, 40] scale=0.101960786 zero_point=-128
000000 80 80 80 80 80 80 80 80 80 80 80 80 80 80 80 80
       0.0 0.0 0.0 0.0 0.0 0.0 0.0 0.0 0.0 0.0 0.0 0.0 0.0 0.0 0.0 0.0
000010 80 80 80 80 80 80 80 80 80 80 80 80 80 80 80 80
       0.0 0.0 0.0 0.0 0.0 0.0 0.0 0.0 0.0 0.0 0.0 0.0 0.0 0.0 0.0 0.0
000020 80 80 80 80 80 80 80 80 80 80 80 80 80 80 80 80
       0.0 0.0 0.0 0.0 0.0 0.0 0.0 0.0 0.0 0.0 0.0 0.0 0.0 0.0 0.0 0.0
000030 80 80 80 80 80 80 80 80 80 80 80 80 80 80 80 80
       0.0 0.0 0.0 0.0 0.0 0.0 0.0 0.0 0.0 0.0 0.0 0.0 0.0 0.0 0.0 0.0
000040 80 80 80 80 80 80 80 80 80 80 80 80 80 80 80 80
       0.0 0.0 0.0 0.0 0.0 0.0 0.0 0.0 0.0 0.0 0.0 0.0 0.0 0.0 0.0 0.0

tfl.pseudo_qconst27 i1 [1, 4, 1, 32] scale=0.6239504 zero_point=-128
000000 80 80 80 80 80 80 80 80 80 80 80 80 80 80 80 80
       0.0 0.0 0.0 0.0 0.0 0.0 0.0 0.0 0.0 0.0 0.0 0.0 0.0 0.0 0.0 0.0
000010 80 80 80 80 80 80 80 80 80 80 80 80 80 80 80 80
       0.0 0.0 0.0 0.0 0.0 0.0 0.0 0.0 0.0 0.0 0.0 0.0 0.0 0.0 0.0 0.0
000020 80 80 80 80 80 80 80 80 80 80 80 80 80 80 80 80
       0.0 0.0 0.0 0.0 0.0 0.0 0.0 0.0 0.0 0.0 0.0 0.0 0.0 0.0 0.0 0.0
000030 80 80 80 80 80 80 80 80 80 80 80 80 80 80 80 80
       0.0 0.0 0.0 0.0 0.0 0.0 0.0 0.0 0.0 0.0 0.0 0.0 0.0 0.0 0.0 0.0
000040 80 80 80 80 80 80 80 80 80 80 80 80 80 80 80 80
       0.0 0.0 0.0 0.0 0.0 0.0 0.0 0.0 0.0 0.0 0.0 0.0 0.0 0.0 0.0 0.0
000050 80 80 80 80 80 80 80 80 80 80 80 80 80 80 80 80
       0.0 0.0 0.0 0.0 0.0 0.0 0.0 0.0 0.0 0.0 0.0 0.0 0.0 0.0 0.0 0.0
000060 80 80 80 80 80 80 80 80 80 80 80 80 80 80 80 80
       0.0 0.0 0.0 0.0 0.0 0.0 0.0 0.0 0.0 0.0 0.0 0.0 0.0 0.0 0.0 0.0
000070 80 80 80 80 80 80 80 80 80 80 80 80 80 80 80 80
       0.0 0.0 0.0 0.0 0.0 0.0 0.0 0.0 0.0 0.0 0.0 0.0 0.0 0.0 0.0 0.0

tfl.pseudo_qconst28 i1 [1, 10, 1, 64] scale=0.033174448 zero_point=-128
000000 80 80 80 80 80 80 80 80 80 80 80 80 80 80 80 80
       0.0 0.0 0.0 0.0 0.0 0.0 0.0 0.0 0.0 0.0 0.0 0.0 0.0 0.0 0.0 0.0
000010 80 80 80 80 80 80 80 80 80 80 80 80 80 80 80 80
       0.0 0.0 0.0 0.0 0.0 0.0 0.0 0.0 0.0 0.0 0.0 0.0 0.0 0.0 0.0 0.0
000020 80 80 80 80 80 80 80 80 80 80 80 80 80 80 80 80
       0.0 0.0 0.0 0.0 0.0 0.0 0.0 0.0 0.0 0.0 0.0 0.0 0.0 0.0 0.0 0.0
000030 80 80 80 80 80 80 80 80 80 80 80 80 80 80 80 80
       0.0 0.0 0.0 0.0 0.0 0.0 0.0 0.0 0.0 0.0 0.0 0.0 0.0 0.0 0.0 0.0
000040 80 80 80 80 80 80 80 80 80 80 80 80 80 80 80 80
       0.0 0.0 0.0 0.0 0.0 0.0 0.0 0.0 0.0 0.0 0.0 0.0 0.0 0.0 0.0 0.0
000050 80 80 80 80 80 80 80 80 80 80 80 80 80 80 80 80
       0.0 0.0 0.0 0.0 0.0 0.0 0.0 0.0 0.0 0.0 0.0 0.0 0.0 0.0 0.0 0.0
000060 80 80 80 80 80 80 80 80 80 80 80 80 80 80 80 80
       0.0 0.0 0.0 0.0 0.0 0.0 0.0 0.0 0.0 0.0 0.0 0.0 0.0 0.0 0.0 0.0
000070 80 80 80 80 80 80 80 80 80 80 80 80 80 80 80 80
       0.0 0.0 0.0 0.0 0.0 0.0 0.0 0.0 0.0 0.0 0.0 0.0 0.0 0.0 0.0 0.0
000080 80 80 80 80 80 80 80 80 80 80 80 80 80 80 80 80
       0.0 0.0 0.0 0.0 0.0 0.0 0.0 0.0 0.0 0.0 0.0 0.0 0.0 0.0 0.0 0.0
000090 80 80 80 80 80 80 80 80 80 80 80 80 80 80 80 80
       0.0 0.0 0.0 0.0 0.0 0.0 0.0 0.0 0.0 0.0 0.0 0.0 0.0 0.0 0.0 0.0
0000a0 80 80 80 80 80 80 80 80 80 80 80 80 80 80 80 80
       0.0 0.0 0.0 0.0 0.0 0.0 0.0 0.0 0.0 0.0 0.0 0.0 0.0 0.0 0.0 0.0
0000b0 80 80 80 80 80 80 80 80 80 80 80 80 80 80 80 80
       0.0 0.0 0.0 0.0 0.0 0.0 0.0 0.0 0.0 0.0 0.0 0.0 0.0 0.0 0.0 0.0
0000c0 80 80 80 80 80 80 80 80 80 80 80 80 80 80 80 80
       0.0 0.0 0.0 0.0 0.0 0.0 0.0 0.0 0.0 0.0 0.0 0.0 0.0 0.0 0.0 0.0
0000d0 80 80 80 80 80 80 80 80 80 80 80 80 80 80 80 80
       0.0 0.0 0.0 0.0 0.0 0.0 0.0 0.0 0.0 0.0 0.0 0.0 0.0 0.0 0.0 0.0
0000e0 80 80 80 80 80 80 80 80 80 80 80 80 80 80 80 80
       0.0 0.0 0.0 0.0 0.0 0.0 0.0 0.0 0.0 0.0 0.0 0.0 0.0 0.0 0.0 0.0
0000f0 80 80 80 80 80 80 80 80 80 80 80 80 80 80 80 80
       0.0 0.0 0.0 0.0 0.0 0.0 0.0 0.0 0.0 0.0 0.0 0.0 0.0 0.0 0.0 0.0

tfl.pseudo_qconst29 i1 [1, 14, 1, 64] scale=0.04750536 zero_point=-128
000000 80 80 80 80 80 80 80 80 80 80 80 80 80 80 80 80
       0.0 0.0 0.0 0.0 0.0 0.0 0.0 0.0 0.0 0.0 0.0 0.0 0.0 0.0 0.0 0.0
000010 80 80 80 80 80 80 80 80 80 80 80 80 80 80 80 80
       0.0 0.0 0.0 0.0 0.0 0.0 0.0 0.0 0.0 0.0 0.0 0.0 0.0 0.0 0.0 0.0
000020 80 80 80 80 80 80 80 80 80 80 80 80 80 80 80 80
       0.0 0.0 0.0 0.0 0.0 0.0 0.0 0.0 0.0 0.0 0.0 0.0 0.0 0.0 0.0 0.0
000030 80 80 80 80 80 80 80 80 80 80 80 80 80 80 80 80
       0.0 0.0 0.0 0.0 0.0 0.0 0.0 0.0 0.0 0.0 0.0 0.0 0.0 0.0 0.0 0.0
000040 80 80 80 80 80 80 80 80 80 80 80 80 80 80 80 80
       0.0 0.0 0.0 0.0 0.0 0.0 0.0 0.0 0.0 0.0 0.0 0.0 0.0 0.0 0.0 0.0
000050 80 80 80 80 80 80 80 80 80 80 80 80 80 80 80 80
       0.0 0.0 0.0 0.0 0.0 0.0 0.0 0.0 0.0 0.0 0.0 0.0 0.0 0.0 0.0 0.0
000060 80 80 80 80 80 80 80 80 80 80 80 80 80 80 80 80
       0.0 0.0 0.0 0.0 0.0 0.0 0.0 0.0 0.0 0.0 0.0 0.0 0.0 0.0 0.0 0.0
000070 80 80 80 80 80 80 80 80 80 80 80 80 80 80 80 80
       0.0 0.0 0.0 0.0 0.0 0.0 0.0 0.0 0.0 0.0 0.0 0.0 0.0 0.0 0.0 0.0
000080 80 80 80 80 80 80 80 80 80 80 80 80 80 80 80 80
       0.0 0.0 0.0 0.0 0.0 0.0 0.0 0.0 0.0 0.0 0.0 0.0 0.0 0.0 0.0 0.0
000090 80 80 80 80 80 80 80 80 80 80 80 80 80 80 80 80
       0.0 0.0 0.0 0.0 0.0 0.0 0.0 0.0 0.0 0.0 0.0 0.0 0.0 0.0 0.0 0.0
0000a0 80 80 80 80 80 80 80 80 80 80 80 80 80 80 80 80
       0.0 0.0 0.0 0.0 0.0 0.0 0.0 0.0 0.0 0.0 0.0 0.0 0.0 0.0 0.0 0.0
0000b0 80 80 80 80 80 80 80 80 80 80 80 80 80 80 80 80
       0.0 0.0 0.0 0.0 0.0 0.0 0.0 0.0 0.0 0.0 0.0 0.0 0.0 0.0 0.0 0.0
0000c0 80 80 80 80 80 80 80 80 80 80 80 80 80 80 80 80
       0.0 0.0 0.0 0.0 0.0 0.0 0.0 0.0 0.0 0.0 0.0 0.0 0.0 0.0 0.0 0.0
0000d0 80 80 80 80 80 80 80 80 80 80 80 80 80 80 80 80
       0.0 0.0 0.0 0.0 0.0 0.0 0.0 0.0 0.0 0.0 0.0 0.0 0.0 0.0 0.0 0.0
0000e0 80 80 80 80 80 80 80 80 80 80 80 80 80 80 80 80
       0.0 0.0 0.0 0.0 0.0 0.0 0.0 0.0 0.0 0.0 0.0 0.0 0.0 0.0 0.0 0.0
0000f0 80 80 80 80 80 80 80 80 80 80 80 80 80 80 80 80
       0.0 0.0 0.0 0.0 0.0 0.0 0.0 0.0 0.0 0.0 0.0 0.0 0.0 0.0 0.0 0.0
